assets/improved_agent/blue_weights.npy (npy, 800208 bytes, 1 tensors)

array f8 [10001, 10]
00000000: 0447 b090 2078 d73f 3ca8 23b9 8699 d23f
00000010: ba56 630e d512 dcbf 4218 28bd d3b2 d4bf
00000020: 9898 edc0 3069 da3f e807 9cde 9239 c5bf
00000030: dcb8 c61c a30d d53f bce2 7f40 dad3 dc3f
00000040: 509f 20f7 b020 c7bf ea5c 28ec dc58 dd3f
00000050: 7e78 5760 4a1f 0cc0 0a3e 9685 e3c8 f0bf
00000060: 0c46 9b7f 9f35 fcbf e2e5 051b 55da fabf
00000070: 58f3 00f7 a726 eebf 16a9 b28f 7716 f8bf
00000080: e279 ad6c dc2b f0bf 46ce 3737 53f1 ecbf
00000090: 033c c352 5b53 f8bf bd21 aaf1 1b32 ecbf
000000a0: 9185 3428 c1a2 fdbf 5087 7c95 10ee cdbf
000000b0: 2eed b44e b93e ecbf fca0 14ae fef2 e9bf
000000c0: 30f8 72e7 bfd7 bebf 879b f8bf 1dd6 e4bf
000000d0: 00c5 e289 06af c5bf 3841 a7cf 532f babf
000000e0: 1b40 1325 959b e7bf 700c 1001 318a b2bf
000000f0: 9871 97a5 74dd debf e4be ed12 bbe5 cd3f
00000100: 42b7 34c9 8c93 dabf 8ebc 41c7 06f4 d4bf
00000110: 9e99 c744 f0db d53f e827 7857 ab84 c7bf
00000120: 0a8c d424 686a d33f 5c87 ba4a 0b06 d73f
00000130: 8c28 820b 4aa5 d1bf fe1f f193 5947 d93f
00000140: 7005 809d 409f b23f 288a 3da1 f180 e13f
00000150: a085 2d41 96f8 bdbf 509d 83bf 9f8a 90bf
00000160: 76f2 7d63 f82a e53f 0491 9b88 e4a9 c33f
00000170: 4413 8a8a 767a e53f ff69 5a94 1c5a e73f
00000180: 2083 9fdb cd1f b33f bced 0a02 20ec e73f
00000190: aa88 611d a481 01c0 5028 da52 39d4 a93f
000001a0: 5573 daef 63eb e3bf 8670 9f78 8f8a e1bf
000001b0: c8cf 430c b023 bcbf 31ad 3a27 527c e3bf
000001c0: 58c9 e2d3 bea7 b9bf 0027 c00a 1d55 a5bf
000001d0: 0b7c 92a9 744b e6bf 60d6 6f5f cc69 98bf
000001e0: 09d6 2274 eb47 00c0 ef4c 640c 9973 b03f
000001f0: e6d6 d5ce f788 e3bf 5042 0e26 0f2d e1bf
00000200: c708 e81c 92c1 b8bf a809 e6bb 00d5 e2bf
00000210: 9cc9 1871 d259 b1bf b0cf 97e9 9686 60bf
00000220: 33c3 4d5f 73d5 e4bf de27 2833 06f3 9e3f
00000230: 542b d576 ff8a e2bf ff9c 374b 518f f13f
00000240: 8080 40f6 8793 d53f aa75 6fe9 01dd c8bf
00000250: ea86 3186 aa95 e93f 48cb 85a2 76dc b23f
00000260: efd3 bcbb a428 d83f e527 b615 82c2 e43f
00000270: 0045 114a d260 adbf 4871 1482 99df db3f
00000280: 60be aeee 0513 ffbf 4b83 94fa 4912 e43f
00000290: c881 6938 01fa bdbf e44d 899c 44c0 e4bf
000002a0: baa8 9421 bfc1 d53f 48f2 2c42 78b2 d8bf
000002b0: 0c34 7822 8ea5 b3bf b0dd 22ce f7e5 c83f
000002c0: dd46 081a d88a e0bf 203d 9f8b c69f 98bf
000002d0: 0a58 7c6d 44ae f6bf cad9 df70 34ee e93f
000002e0: 34d2 e947 59af af3f 328a ba7c d22d debf
000002f0: b921 564c 159b e03f 64c1 a90b 83bf cabf
00000300: d636 e6b9 1f2c ba3f 6e80 69a3 b2c5 d73f
00000310: 247c b877 f9c2 d5bf 4229 bd31 0b4e c33f
00000320: bf81 4c2d 3ce4 f5bf 3ffb 1d8e a579 ea3f
00000330: 5726 1abf e23f b43f ae53 8b8e 1b1a ddbf
00000340: 2e43 9469 8626 e13f 913b b196 be91 c8bf
00000350: 7d42 d7a3 a887 be3f f2b6 9891 69d9 d83f
00000360: a045 8989 42af d4bf 15af b5a6 cf7b c53f
00000370: 8eb0 7c29 48cc f7bf 5824 225e 635e e93f
00000380: 40de 767e a2cb a63f 7c01 83ee 9f50 dfbf
00000390: a527 b44d 7007 e03f a384 0fa7 77ef ccbf
000003a0: 6ad5 3ce2 d5ea b53f 9bf6 0f82 9593 d63f
000003b0: 296a b811 1fde d6bf 8c78 e845 662d c13f
000003c0: 734b aab8 7313 f7bf de43 6701 e9d0 e93f
000003d0: d5af eef2 cadc ad3f 234c ef17 6171 debf
000003e0: 98e9 f60c 697b e03f 8b06 fb19 6125 cbbf
000003f0: 34be 781c 6a73 b93f 807a 9500 877b d73f
00000400: 44e6 3293 2df6 d5bf a4f6 fcd2 7cf7 c23f
00000410: d1ac 4dce 9c7f f5bf 22c0 0a07 24f1 ea3f
00000420: 083a 93a6 3df0 b73f e320 03be 4037 dcbf
00000430: dc65 9a12 a49b e13f 7c15 6d03 75a4 c6bf
00000440: 2950 ca24 a13a c13f 0873 dc0b fdbb d93f
00000450: 9455 fc9b b8c8 d3bf 747d b45e bb45 c73f
00000460: f686 2ec2 7f47 f6bf 3681 23b2 9c65 ea3f
00000470: 4c48 51b9 8da0 b33f bc9e d167 4f4e ddbf
00000480: 5a28 316c 3f13 e13f 5a0e 0efa 4ccc c8bf
00000490: efa8 5aa2 0719 be3f 99f6 8b10 11a8 d83f
000004a0: 99d0 cee8 81d9 d4bf c281 170b 9e17 c53f
000004b0: 83f9 7b18 e596 f6bf f29e deb6 8c32 ea3f
000004c0: 2936 2adf 0d08 b23f 72c6 8832 aeb5 ddbf
000004d0: 1646 ec70 2fe0 e03f c65d 7c8f 0a9b c9bf
000004e0: 627d c826 9176 bc3f 1032 021a f141 d83f
000004f0: 4ff8 85b3 e040 d5bf b1f8 031e 5e4b c43f
00000500: e3dc 454e 79d0 f5bf 27b3 e690 9cbe ea3f
00000510: cea2 977f 195c b63f 8838 6216 c8a3 dcbf
00000520: abf3 f9e4 b06a e13f f40c 5c27 cb6a c7bf
00000530: 838f 84fb 876b c03f b927 079a 2d5d d93f
00000540: e6cf 75ff c028 d4bf 827e f7b5 1088 c63f
00000550: 7169 9583 dcc3 f7bf 96f0 97aa b0fe e93f
00000560: e5d6 77bb 691d aa3f 85f6 87c4 4c7c dfbf
00000570: 59de 6610 70e9 e03f 450a 39ba 2636 cbbf
00000580: 7250 94b5 a755 b53f b4d3 be79 017a d83f
00000590: 5840 8290 43b8 d5bf bbbc 6967 5fdd be3f
000005a0: e1f2 c978 b0aa f6bf 985c b975 8cbe ea3f
000005b0: b414 d99b 371f b33f 811e 452e 95fc ddbf
000005c0: 5b4a 88db 4ba9 e13f 3d5a b38d b736 c8bf
000005d0: 82b0 9f0e 8654 bb3f 041e 4629 22fe d93f
000005e0: 08f6 fae0 2234 d4bf 658e 3ae0 1e6e c23f
000005f0: 66d0 3b5f 2568 f1bf a447 ee4c fabe ee3f
00000600: 5ce0 8759 d0e5 c93f 0c89 c59c 5bbc d5bf
00000610: 21c7 8db9 cd10 e73f 3088 2db9 7c4e a2bf
00000620: add2 0dff ccbb d03f 6ba6 488e 8456 e03f
00000630: 2575 629c 7146 c4bf 4b43 d19f 9b08 d33f
00000640: 565d a3a6 3e77 f7bf 043f a972 e9b4 ea3f
00000650: 0529 a3af bf3d b43f a224 7897 28b8 ddbf
00000660: 5679 343c e712 e33f 3899 b023 398b c4bf
00000670: 2e6e b608 0080 c13f e926 b6db 90c9 d83f
00000680: 7f60 0c0f b106 d2bf 6a4f 3d4a 9d19 c63f
00000690: eefb 0829 5359 f7bf 11cf ac25 08ca ea3f
000006a0: 1079 db16 f4e2 b43f 9f10 aa7d db8e ddbf
000006b0: 6309 38ef 0528 e33f 1b65 dba3 ae37 c4bf
000006c0: 1c8a 19f0 a9d1 c13f f7c0 a01b 56f3 d83f
000006d0: 6540 05a9 73dc d1bf 6f77 d97d 376c c63f
000006e0: 2a3b 423f f01c f7bf e61a 3952 a8f4 ea3f
000006f0: aed6 a882 2b34 b63f 7bf9 db20 803b ddbf
00000700: 5af5 d65a 1f53 e33f c535 aaf1 2d8d c3bf
00000710: eb38 00a6 457a c23f a258 b974 9648 d93f
00000720: fde8 11ce 2588 d1bf 3e26 c033 d314 c73f
00000730: 5c2b 32f3 ef83 f7bf 378e a16f 91ad ea3f
00000740: 9dd0 4d51 6108 b43f ffba 32ad 72c6 ddbf
00000750: ab68 3f78 080c e33f ceb8 570a 13a3 c4bf
00000760: 095e 7a54 2561 c13f 316b f64b 06bc d83f
00000770: 6ed6 d4f6 b514 d2bf 36a3 121b eefe c53f
00000780: 5a63 137e 9873 fbbf 0aa0 9333 79d6 e73f
00000790: d086 1dc7 3c6a 8dbf b211 5036 2819 e2bf
000007a0: f4ec 81f3 6ceb df3f d2e9 a577 6f0c d1bf
000007b0: 80f9 ad68 fd60 9d3f c89f b43a bd20 d23f
000007c0: de88 5b1c a41e d9bf c694 ad2e 7e51 b13f
000007d0: fbdb 7126 a5b2 f8bf 8544 3755 e9a6 e93f
000007e0: ecec 48ca e904 a63f 376d ac14 b848 e0bf
000007f0: a779 0c51 90b5 e13f 3245 a8d9 5903 cbbf
0.36670698289627546 0.2906204994202459 -0.43864942936975704 -0.3234147402985209 0.41267031517635067 -0.16581951017002372 0.32895734605962246 0.4504304532888843
-0.18068515841263855 0.4585487657763695 -3.515278580350297 -1.0490451067197477 -1.763091562712705 -1.6783038192355595 -0.942218763760688 -1.5054851163100174
-1.0107082600803712 -0.9044586256481544 -1.5203507645526322 -0.8811168403636241 -1.8522349901689703 -0.23382766055243076 -0.8826567208520026 -0.8109124565135342
-0.12047957802403242 -0.6511372327266692 -0.16940385563570004 -0.10228465861951441 -0.737742016232008 -0.07242113376564574 -0.48226658030559966 0.23357332634213102
-0.41525573395744086 -0.3273941942088151 0.34154898373381026 -0.18373624583210746 0.30336955639558083 0.35974390313832827 -0.2757134544741653 0.39497985312891604
0.07274249882904882 0.546990218088756 -0.11707438555961014 -0.01615380865487498 0.66149539405849 0.1536222140340514 0.6711991029593283 0.7297499558947605
0.07470404254810292 0.7475738563438692 -2.188301305331227 0.05044726501826402 -0.6224841770777895 -0.5481641155161163 -0.10991955089031002 -0.6089258924670614
-0.10021584198947175 -0.04166498905403948 -0.6967109024006971 -0.023841088604930838 -2.0351170609599234 0.06426388313802865 -0.6104697265388637 -0.5367503875041368
-0.09670365529749168 -0.5885013265508876 -0.0677768255343722 -0.0020173022755844636 -0.6510559903527792 0.0302239388202351 -0.5794675179434798 1.0974896372006808
0.3371295838169388 -0.19424461267673837 0.7995197888342009 0.07367650478208276 0.3774806817412459 0.6487436698964727 -0.057379313985288505 0.43552243903265664
-1.9421443294085279 0.6272325414794094 -0.11709602000474384 -0.6484702164984211 0.339950354379322 -0.3858929296727962 -0.07674492208043676 0.19451806607479005
-0.5169487484401675 -0.024046995422222328 -1.4175457264696 0.8103277401522118 0.06188467982147863 -0.4715467660954885 0.5189310542055444 -0.20896947926986364
0.10223577774578571 0.3714415164777226 -0.3400252980372349 0.1508192055574203 -1.3682214517103686 0.8273494506573583 0.07909981885509275 -0.45471848411880955
0.535952764710691 -0.1919477687647171 0.11925748825093226 0.38826979845440157 -0.32319701606055595 0.16784091606256682 -1.487373506602157 0.7927719915907216
0.04452235978845609 -0.4892959431854462 0.5009080426836944 -0.2260579648709938 0.0856145551050155 0.352757813467045 -0.35730721216683264 0.13419798291665008
-1.442249032352916 0.806751730671859 0.058325140147047407 -0.47567012154940097 0.5150647404873778 -0.21207822578985644 0.09941733546360682 0.3669145112707284
-0.34315051436314925 0.14817772199778745 -1.3436554011084818 0.8419361245669317 0.09350953404212003 -0.44087236934548296 0.5502491343824505 -0.1768938318947838
0.13460172935867945 0.40209890516580105 -0.30912604554154055 0.1818155491282415 -1.3924558243965612 0.8249038199683472 0.07666860365250833 -0.45790467394406753
0.5335995782018117 -0.1937347622843955 0.1175694247600949 0.38525797477618934 -0.3257756017221794 0.16478324452965692 -1.4118395763794929 0.8186706134483457
0.07043539713250681 -0.4642138951777276 0.5273663716818102 -0.20004398351805558 0.11118418881277628 0.3790247682561878 -0.33208482295583946 0.15855003800965542
-1.3633969361815665 0.8357680158711432 0.08734282841727323 -0.44749643503099223 0.5442738029665767 -0.18294658109525808 0.12828159123557378 0.3963121418170164
-0.31498742053304196 0.1760273827085151 -1.4853177204118675 0.8123401004700266 0.051005653509418804 -0.49196166222086674 0.5284958191250083 -0.21259006588850773
0.0833382433232275 0.3824466408653351 -0.3393715773791022 0.12056537890178991 -1.4166722029032643 0.8357603358553147 0.07469508700258382 -0.4685414268355786
0.5519160545102965 -0.1891698305032196 0.10675847870851565 0.4061360743585001 -0.3156821438859372 0.14398561428707804 -1.0879262657226945 0.9608127119592962
0.20232586261386387 -0.33962145147064926 0.7208012222383539 -0.03575505981895366 0.26146244914643085 0.5105612544040928 -0.15839977394072338 0.29740038497134397
-1.4666124829580744 0.8345839728808362 0.0790672115137206 -0.46436514655995087 0.5960575271490522 -0.16049875490825527 0.13671875405712924 0.38730260330394956
-0.28165842504086663 0.17265668988204236 -1.4593078234608998 0.837162087997486 0.0815880351833338 -0.46184432289033767 0.5986356422657021 -0.15794928551512374
0.1392109320032241 0.38985207269708105 -0.2790803099242168 0.17517751355165553 -1.4445650549930158 0.8423654180449744 0.08673355045251682 -0.4567566223994601
0.603896787091496 -0.15274595546763528 0.14435644727240712 0.3950554027445695 -0.27393479465503373 0.18032302882083856 -1.469711256012224 0.8336875133795222
0.07825287089309758 -0.4652373019588793 0.5952188824260437 -0.16122663502705453 0.13577715515997138 0.3864761106321338 -0.2825140867674695 0.17184234926141934
-1.7157216000398052 0.7449308402401595 -0.014362788034932988 -0.5655709324642457 0.4987442377093452 -0.26638399776825594 0.028690299524436025 0.28324824078526634
-0.3924951817445058 0.06764973296738494 -1.5436145307301092 0.8016249336598241 0.04300623506829901 -0.5088768390445811 0.5534135420783074 -0.21103976371572625
