assets/improved_agent/blue_weights.npy (npy, 80208 bytes, 1 tensors)

array f8 [1001, 10]
00000000: 7cf6 3ac6 b145 c73f 76eb 02e8 4f0e da3f
00000010: 361a 0f33 6a1a d93f d09b 5cb2 5734 b93f
00000020: a483 f3c8 1990 c7bf 8895 a2ef 1e1a d93f
00000030: c0aa 6269 adde aabf a8e5 c599 459f cc3f
00000040: a070 b54b ba6d af3f 7242 a6bf 9d78 d03f
00000050: 5c0d f9b0 e909 0fc0 9d49 ad90 d550 efbf
00000060: 3d32 276b c8ca efbf 5b7a cf7f 7b57 f4bf
00000070: 8cb4 1334 c4dc f8bf 6c3d 197e 7248 efbf
00000080: 6e59 4066 b6c1 f6bf cd6b 5a80 9a15 f2bf
00000090: fd7c 3561 15ae f4bf e697 a9c3 5b8b f1bf
000000a0: 3bf3 c84d 95f8 ffbf 945e ce5b 587d d6bf
000000b0: d42f c210 3e71 d7bf aa70 c1ad 5a60 e4bf
000000c0: 0ce5 4916 ec6a edbf c072 7758 acf3 d5bf
000000d0: 8998 ba69 4371 e9bf aad3 7f7f 4b40 dfbf
000000e0: ee75 8d70 8e0d e5bf 8057 eb6a 3690 ddbf
000000f0: b662 13a6 74cc e3bf 4cea 348f e986 be3f
00000100: 407d 49f3 da19 bc3f 60a4 dc1b 0192 c4bf
00000110: f130 f86c c5b6 dcbf a4c1 ac64 114b bf3f
00000120: eb97 d913 74c3 d4bf 30a8 43fe 8b13 92bf
00000130: 6aa5 fe42 14f8 c7bf e034 0896 8adb 813f
00000140: 761e 6697 486a e6bf 7823 1e31 a223 b73f
00000150: af3d 8edb 9ae0 b43f f925 51f9 2239 c8bf
00000160: be71 b25b 568a debf 72be c3a9 cdfc b73f
00000170: b8d8 9302 0597 d6bf 7dda f374 4da6 a7bf
00000180: d408 0af2 b7a9 cbbf 5af2 9fa0 494b 94bf
00000190: 8078 073d f672 eebf e806 8b1c f0de 8f3f
000001a0: 0038 11d4 73d7 853f 67a3 b311 1eb6 d0bf
000001b0: f6b0 323d bf79 e1bf fc4a 5fef 9c5e 983f
000001c0: 64de d61a 7020 dbbf 042d e55b 35b6 bcbf
000001d0: d9e9 ef9a e22d d2bf 4ae8 13d6 f8f7 b6bf
000001e0: e073 ea52 eeab ebbf 9518 b5b8 4e57 a43f
000001f0: 624e cff9 465b a23f b586 34a2 e132 cebf
00000200: 888b 1912 c6b3 e0bf 59fc 4129 e18e a83f
00000210: 1330 b57d 5689 d9bf 82c8 fa90 ba9c b6bf
00000220: fe9e bd44 f0a1 d0bf dcbc 4a7d 2fc8 b0bf
00000230: e4f2 6f63 308a e4bf 782c 3c18 bebd bc3f
00000240: edcd 7b6f 01f9 bb3f 9eb6 4344 d6e9 c4bf
00000250: 610d 8ea7 b4b4 dcbf e824 3587 ce12 bf3f
00000260: 08c8 bcce d0e4 d4bf 300e 35f3 e48a 8ebf
00000270: 9e2a 3190 31de c7bf 2035 6ee9 739e 7c3f
00000280: 21de c7ad ec3c ecbf 8835 765f be38 a63f
00000290: b608 077a ec2a a53f 67db 7fdd 9b9b cdbf
000002a0: e728 d730 868e e0bf 2296 56d1 3767 aa3f
000002b0: 750c dd88 284d d9bf bf43 f9f2 62ee b5bf
000002c0: cd3d 3d5d 5a76 d0bf 85f6 f25f 4b15 b0bf
000002d0: 5386 b2fa 4ca4 efbf d069 db05 aea8 963f
000002e0: 6265 fb4b 4b6a 923f d06d 412c e0b9 d0bf
000002f0: 9fdb 1f58 7973 e1bf de2a 9a97 8875 9c3f
00000300: 8e5c ae7e b8fb dabf afee fc33 3aa1 babf
00000310: 3973 1e64 be02 d2bf 9aa1 f8f2 3a58 b7bf
00000320: 0087 47bf 6d9c 61bf 6e62 a996 93a4 c63f
00000330: e4b6 2587 2988 ce3f 309b fb89 d615 8cbf
00000340: 001a c4ef cfce 7ebf c6d5 ee30 143e e03f
00000350: 40af 1ae3 e4a0 afbf ee06 8585 1ccd d73f
00000360: 56ef 51b8 53f6 c13f f053 e68f f75f d83f
00000370: 40dc e83f d8ff f2bf e48b a88d 0bfb c5bf
00000380: ec08 86f8 49fe babf 863a 04f6 55e4 d6bf
00000390: 0ca1 5c22 3317 d7bf c668 699f b158 c43f
000003a0: 114d 8c2e ec43 dabf a064 772e 4a12 933f
000003b0: f231 e90c 9c41 cbbf 38e6 eaed 3f81 a03f
000003c0: 1aaa 94d2 ed44 f6bf fc6a 8554 03ee c7bf
000003d0: c4c4 501e ba78 c0bf ad1a 0b87 2061 d8bf
000003e0: 462d 4616 6cf6 d7bf 1d6f 655c a293 c13f
000003f0: 8565 5f16 5e02 dcbf 00cd 007a 0317 293f
00000400: 92d5 7b1e 7455 cebf a48d 000a 6629 973f
00000410: 76a0 58c3 edae efbf 1862 a8e0 f5bc a8bf
00000420: 30cc c672 c626 813f f4c1 dcda dbcf cebf
00000430: 1608 3150 122e cebf ca60 601c 34a9 d13f
00000440: 4abc 3128 fb22 d3bf a9d2 399d 0bc5 c13f
00000450: 1648 fd31 9b94 b9bf 3c43 bd46 5370 c43f
00000460: 54e5 819c f4f2 efbf 99f0 b5fa f61a aabf
00000470: c7b6 6e39 cfa1 773f b782 ac9b 2824 cfbf
00000480: 00a2 45c3 a386 cebf 1f4a 678f fc7d d13f
00000490: d037 e21e aa4d d3bf bf38 252a 7a6c c13f
000004a0: ea7b 2618 be45 babf 2f4c 5c59 f51a c43f
000004b0: 9888 eca8 28b5 f0bf 7ab8 854e e974 b0bf
000004c0: 1345 cc13 a318 7ebf 4b2d 0b17 fe68 d0bf
000004d0: 0b81 ed55 2d1d d0bf 149a 1c1b 21a4 d03f
000004e0: dbe7 2c93 8527 d4bf 51b1 1f83 8671 bf3f
000004f0: 173c 51e9 2bad bdbf 18ec c670 3e67 c23f
00000500: 3722 1cb2 dc78 f0bf 5838 acd3 30a3 aebf
00000510: 6000 a591 29c7 67bf 3746 dfdd 2920 d0bf
00000520: a0b1 7d7d 96aa cfbf 2881 4854 f5ec d03f
00000530: efc1 0338 bfdd d3bf d0a6 e7b3 6b4a c03f
00000540: 2a9b 968c a38d bcbf f037 1927 cbfa c23f
00000550: f326 ca01 69cf edbf 248d 40e6 f3e0 99bf
00000560: 88aa d118 2ba3 9f3f 8ca9 fcda 3be0 cbbf
00000570: bece bb9c 7e4a cbbf 9972 a944 011d d33f
00000580: 7ed0 a247 b3ad d1bf b289 a994 83aa c43f
00000590: 47a2 501c 48b4 b3bf d21a db07 e35a c73f
000005a0: bd32 92cc d85c eebf 0232 65cb 1be9 9fbf
000005b0: 3719 bfec c2ac 993f 44b9 5ce9 d09c ccbf
000005c0: e820 3ea2 4b09 ccbf 4b28 57c6 7ebc d23f
000005d0: 93f9 63ca 190d d2bf 16f5 0498 7ee9 c33f
000005e0: 7ecb 9915 5236 b5bf 3686 360b de99 c63f
000005f0: 2e3b 0eb8 3bc4 f5bf d940 2ef6 905f b4bf
00000600: fcab 1cd6 10bd a1bf 674d da93 4729 d3bf
00000610: 8797 ae1a 14d7 d1bf 6ad6 038b 5846 cf3f
00000620: ce44 58de 48cb dcbf 9aa3 f34d 7d1f b83f
00000630: 3cef 0d6c 5635 c7bf 70d5 74d8 29bd 8fbf
00000640: b342 ee24 6496 f1bf 1078 5b0d 24b6 873f
00000650: bab3 9619 9aef ac3f 36dd e11e d485 cabf
00000660: 7322 3c13 1e46 c8bf 5764 057d f967 d53f
00000670: 80be 47cd 4317 d7bf baa9 e662 e9ba c73f
00000680: eff9 0dfa 7757 b7bf db49 ffa2 8f1b b33f
00000690: 117d ea72 fd08 f1bf 8651 fe88 a65c 973f
000006a0: 3e26 ca77 1161 b13f 86ca 978e a115 c9bf
000006b0: 4463 2728 5bda c6bf af6d 2ac5 1220 d63f
000006c0: a908 582a 9a63 d6bf 6815 c6a8 3c22 c93f
000006d0: 917b e423 f27f b4bf 3821 be2e 36ea b53f
000006e0: c1ed 73b6 1064 f0bf 621d 3758 415a a63f
000006f0: 4b20 305f 1ff5 b63f 25f8 5a2d c750 c6bf
00000700: 3d66 7434 5410 c4bf bfd6 8d64 8ba1 d73f
00000710: 4f4a 0866 c8d7 d4bf a8e7 c778 2206 cc3f
00000720: be59 72db a38c acbf a86f 7342 ed61 bc3f
00000730: 5aab 148e af48 f0bf 079e c5da 2c85 a73f
00000740: 08a5 c7ea 4c8c b73f 5bf1 3e9d 7803 c6bf
00000750: dea3 a86e bdc4 c3bf eeb7 73c7 56c7 d73f
00000760: ea46 fa1d 21b1 d4bf d187 6b59 dd50 cc3f
00000770: ef61 84ed 2765 abbf fbaf ba03 63f7 bc3f
00000780: 0adc 89f7 7caf f0bf 03ec 38cb 9d3c a33f
00000790: 4580 e2ac 786e b53f bc83 31bc 6212 c7bf
000007a0: 0002 ba43 34cd c4bf cdbb 728a 7e41 d73f
000007b0: fbf5 8288 5c35 d5bf 70f5 783a f341 cb3f
000007c0: f642 8cd5 e993 afbf 77bf b60f 02e0 ba3f
000007d0: d4c5 8629 fc43 f0bf 7a71 bb41 439e ad3f
000007e0: 9a0a 30e0 d403 b93f b0f2 0871 963d c5bf
000007f0: 8d00 59d2 d5aa c2bf 465f 77f7 ee4b d83f
0.18181440524306314 0.4071235433327084 0.39223723398427823 0.0984549341634271 -0.18408510505744602 0.3922192897974459 -0.052480143656187916 0.22361059196900368
0.06138403104952883 0.2573618289543794 -3.879840262032003 -0.9786174607964316 -0.9935037701448618 -1.2713580124469874 -1.5538980516678604 -0.9775936568129686
-1.4222930902666024 -1.130274297122685 -1.2925008580421598 -1.0965230601373093 -1.9981892622447066 -0.3514004608673329 -0.36628677021576306 -0.636761988989311
-0.919302028210184 -0.3429976333552922 -0.7950760903375037 -0.48829925013643083 -0.6579048345844833 -0.46192703667963286 -0.6187079662004951 0.11924609895951582
0.10976952018380803 -0.16070569858973993 -0.4486554683833353 0.12223919589883409 -0.324429530510655 -0.01765269030958211 -0.18725827475763462 0.008719523147215857
-0.7004740674028216 0.0903874750057535 0.08155219898457376 -0.18924367116623822 -0.4771934409598336 0.0937012233223358 -0.3529675030871533 -0.046190662886080404
-0.21611689871139694 -0.019818449429282438 -0.9515334312416286 0.015561939116540427 0.010664849194792936 -0.2611155674808771 -0.5461116976998983 0.023798420057413047
-0.42385485287693414 -0.11215528005157088 -0.28405060892660355 -0.0897212526942052 -0.864737665123922 0.03972860340813714 0.03585264014659796 -0.23592777652907207
-0.5219450334083016 0.047965084349009764 -0.3990074374785319 -0.08832899131337693 -0.25988394463500686 -0.06555458840260847 -0.6418687765249982 0.11227024165798294
0.10926827403800816 -0.16338613827922627 -0.44852939951689136 0.12138071824041996 -0.3264657992286861 -0.014913357421966728 -0.18646831074359665 0.006987049847237331
-0.8824370760111756 0.043401669648214514 0.041343107124263964 -0.23131130519297047 -0.5173979715266598 0.0515687411346273 -0.39533437123845455 -0.08566873962378362
-0.25722369294541353 -0.06282492725855533 -0.9888062378342489 0.02212783728359985 0.017983604919981196 -0.2613449508841912 -0.5453459473782124 0.027792104962410906
-0.4216138112182727 -0.10402263421286294 -0.28141746308556354 -0.09119003707804155 -0.0021497863292417874 0.17689747673536566 0.2385303411387475 -0.01371352776136589
-0.007521450283326292 0.5075779872628849 -0.06177439949291719 0.3718940071013169 0.1403298044204983 0.3808573632498442 -1.1874620911091966 -0.17172378937638577
-0.10544264142484722 -0.35768651032496057 -0.3607909999432344 0.15895672115113352 -0.4103956656046686 0.018624457441408837 -0.21293974523940978 0.03223609713809278
-1.3918283677873036 -0.18695108057985255 -0.12868429641961232 -0.3809281653197257 -0.3744154183884415 0.1373179389146281 -0.43764450249508285 0.00019142072142273175
-0.23698283661330471 0.02261886058853481 -0.9901036086421431 -0.04831665389446388 0.00837473905344241 -0.24071834742200304 -0.23578099170305283 0.2759523656000168
-0.2990100758096942 0.1388258474068114 -0.09992380114024998 0.15967789606158955 -0.9984076554093613 -0.05098697481568699 0.005769547910785717 -0.24329097367537653
-0.23848387751355915 0.2733146095680769 -0.30161526695235086 0.13612296159630508 -0.1026266869507563 0.15707270491893285 -1.0442282293884428 -0.06428392569589106
-0.007347714444010184 -0.25640823603017243 -0.2517808283937632 0.26001765868787285 -0.3149122178325549 0.12282601071610101 -0.11592363783096037 0.14377575403872878
-1.029507346860681 -0.059838796462017896 -0.002902585210137018 -0.25196310679629924 -0.2473934281109793 0.26446278792174605 -0.3104093596475925 0.1272711399499742
-0.11153623754817646 0.1482786122236912 -0.9315686259226069 -0.02527218907210939 0.030895875348884633 -0.21778057282183416 -0.21321089413651423 0.2986453218962111
-0.2762268256731274 0.16145367392443927 -0.07696963015826795 0.1824611461981563 -0.9488338466195142 -0.03116267613340718 0.02507309503541785 -0.22353564638746992
-0.219033674449981 0.2927548348349133 -0.2820496059865942 0.15556318686314147 -0.08286011721956574 0.1765706591368585 -1.3604085149451737 -0.07958322534819064
-0.034645582329481756 -0.299394506823964 -0.2787523518148806 0.24433428562012988 -0.4499075099311768 0.09423049119108243 -0.18131523395629212 -0.015497519415115873
-1.0992165987592386 0.011577874810821981 0.05651551782953086 -0.2072091246406928 -0.18963981570438512 0.3344711037548839 -0.36079497382068126 0.18539159135009503
-0.09117841582153806 0.07463929871963819 -1.0646948326974022 0.022814371215262884 0.06788739370872407 -0.1959726282362519 -0.17853869877469652 0.34570760015932483
-0.349829236365745 0.19635732880503132 -0.08007729889184946 0.08560503617457449 -1.0244300009788818 0.04365734292837932 0.08967777322698216 -0.17434015001885075
-0.15674831925643842 0.3692348939870093 -0.32567033733463274 0.2189372148275741 -0.05576049855988029 0.11086924431168532 -1.017745547297372 0.04593792124324741
0.0919845650856993 -0.17198093107243548 -0.15444152739772127 0.37154168584572644 -0.32331111838821747 0.2212177931424422 -0.05350613378886126 0.11314982262655342
-1.0428437871430583 0.03757184129468529 0.08371690960712026 -0.1802485865510145 -0.16251233393633413 0.3633724548371305 -0.33138192492683033 0.21295013766386317
-0.06167536479745721 0.10498059161795746 -1.0165979025008385 0.057848073743772724 0.09771471474963747 -0.1659420062950594 -0.14583847781068862 0.3796346108115255
