assets/improved_agent/blue_weights.npy (npy, 800928 bytes, 1 tensors)

array f8 [1001, 100]
000000 d0 06 71 39 4b a6 a3 3f 64 70 51 3f c7 97 c6 3f
       0.03837809635343847 0.17650690643029343
000010 50 be 8f 76 3f 81 dd 3f f8 e9 26 ed 5b 55 ba 3f
       0.4610136659457327 0.10286497630924163
000020 30 b0 42 ba bf 79 dd bf cc f6 53 59 cb 97 cf 3f
       -0.46055596532346765 0.2468198953792381
000030 f0 8c a3 a9 7b 2d ae 3f 82 e8 c5 4b 3a fe d0 3f
       0.0589407581881235 0.26551682853426695
000040 5e 1e e9 ac a9 44 da bf ec 6f 8e d7 33 7b cd bf
       -0.4104408444004316 -0.2303223421594106
000050 d8 da 94 e7 f9 8b d5 3f 3a 85 a3 fa 42 53 d6 3f
       0.33666846862199185 0.34883188702049817
000060 36 48 93 f2 e6 98 db bf a0 b2 d9 26 42 34 9b bf
       -0.4312074059390655 -0.026566537495841147
000070 40 48 88 9a 89 58 c8 bf 40 18 41 17 12 92 c5 bf
       -0.19020195050740263 -0.16852022300207814
000080 8a cd 0a db ec ea db 3f e0 4a 0f 84 7c 85 cf 3f
       0.4362136973461125 0.24626118133763608
000090 80 bf 15 1c 4f ab d5 bf d4 b5 9e d0 31 7f cf bf
       -0.33858087294265005 -0.24606917082330304
0000a0 de 41 f4 6b a8 f0 d5 bf 88 28 2d 0c c5 d1 c2 3f
       -0.3428135923614074 0.14702666372824447
0000b0 b6 49 b8 24 ce 1d d6 3f 4e 11 06 ba 99 30 d4 3f
       0.3455691679565932 0.3154663387906752
0000c0 a4 f1 2a eb 5d 64 df 3f 00 80 9e 2c 8d 14 2e bf
       0.4905009075698905 -0.0002294943172360675
0000d0 78 f5 c3 97 92 ea d0 bf 98 e0 5b f8 a3 4f ca 3f
       -0.2643171770176518 0.2055554354371949
0000e0 98 c1 ab 0e 4f b8 d0 bf f8 cd f7 b7 d2 d0 df 3f
       -0.2612493174811106 0.49712055173515024
0000f0 50 6a b5 d0 e3 af da bf 30 fa 95 ed 04 2f b2 bf
       -0.41698546773628653 -0.0710299568217827
000100 58 fb 67 ef c2 d7 bc bf f8 74 2f ae 81 29 df 3f
       -0.11266725869061867 0.4869083596257293
000110 0a f6 8a 74 9c 56 d1 bf 8e 53 68 3f ca 44 d5 bf
       -0.270911325274796 -0.3323236102308379
000120 88 dd a2 ae 71 e1 bb 3f b8 ed 56 01 63 6b de bf
       0.1089087535245793 -0.475304366405648
000130 40 b8 f6 01 25 0f d8 3f f8 c7 1b 46 95 b7 de 3f
       0.37592435066006047 0.4799550232556835
000140 e8 dd 1f 2c af 14 c7 3f 00 1c ce 59 2b 55 9a bf
       0.18031873373523344 -0.025715520244855128
000150 fc f8 9c e5 96 38 cb 3f b6 2f f9 88 80 96 d5 3f
       0.2126644726903989 0.3373109185820299
000160 20 c0 9f 9c 0f 6f da 3f e0 83 6c c6 9c 0f bb bf
       0.41302862448992705 -0.10570697635968385
000170 08 ae 09 13 c9 ba ba 3f 42 b7 94 29 88 04 dd bf
       0.10441261973181082 -0.4534016042770085
000180 68 e8 a7 31 dc ea d0 3f da 93 3b 67 08 7a da bf
       0.26433472489555365 -0.41369829255409984
000190 4e cd 65 88 00 3f d9 bf 78 ba 42 b4 b5 6f b5 bf
       -0.39447034187397356 -0.08373580599684682
0001a0 6c 22 66 6a 2b d6 d6 bf 32 56 b1 50 7f c5 d6 bf
       -0.3568218745281573 -0.355804280091749
0001b0 26 f8 a2 60 5b 3f d7 3f f4 69 f9 6d 29 41 dc bf
       0.3632420009342944 -0.4414771627395162
0001c0 18 1b c0 02 dd 03 d1 3f 40 9f 95 ed de 66 94 bf
       0.26586079853625355 -0.01992367100811454
0001d0 40 8b 6b 49 1c b0 9c bf 5c 3a 5d d6 c5 e9 d5 bf
       -0.028015558224875337 -0.34239335950852534
0001e0 5c 7a 5e 5c 20 64 d9 3f 42 d5 62 c3 fa f6 d9 bf
       0.39673623104491695 -0.40569943504972994
0001f0 14 aa 0d e7 ef c7 d0 bf e0 a7 87 c8 f4 40 cf bf
       -0.2622031933193807 -0.24416980544566425
000200 f0 e2 85 d8 81 64 a8 bf a0 31 12 b8 7f d6 d2 bf
       -0.04764180915930705 -0.29434197402658846
000210 c8 42 19 b8 dc 71 db bf 24 1d e6 a6 d9 95 d7 3f
       -0.42882459619890456 0.36852113054961166
000220 60 53 58 15 1e d9 b1 bf d6 f8 30 91 77 57 d5 bf
       -0.06971920033568102 -0.33346356562459556
000230 cc f8 c4 c4 42 95 d5 3f 3c b7 49 49 19 b5 d7 3f
       0.3372351571632748 0.37042839200045186
000240 5c 23 c8 ba 72 d8 d7 bf 60 a2 85 d5 0b 29 da 3f
       -0.3725859474221147 0.4087552628684872
000250 c0 c7 40 66 42 dd dc bf 06 98 e0 00 96 8a dd 3f
       -0.4510046003880426 0.46158361516643287
000260 6c ca 0a 61 5e 7a c8 3f c8 ae bb f0 b6 21 de bf
       0.19123439539324083 -0.4708077765378502
000270 52 b4 76 91 e5 dc d4 bf 00 a2 ed 06 84 c0 69 bf
       -0.3259824677032316 -0.003143556466444375
000280 04 e1 71 cf 1e cb d1 3f 32 db 92 e8 16 da d3 3f
       0.27802248247418526 0.3101861258723374
000290 a0 f5 b2 a1 f0 76 9f 3f a0 93 e4 23 aa ef cc 3f
       0.030727157468154354 0.2260639834650222
0002a0 c8 44 ab ba d5 ef d7 3f a8 48 26 71 c6 b4 cd bf
       0.3740133593501693 -0.23207932019119437
0002b0 40 b2 ff 0f 6e 82 8d bf c8 bd 1a 71 cf f0 c9 3f
       -0.014408931601758046 0.20266144774130468
0002c0 2c 9d 92 e3 f9 b8 c9 bf 6c 62 b6 a4 fc 0b d7 3f
       -0.2009575234598996 0.36010662160109663
0002d0 0c 54 6e 91 a9 bc c3 bf 96 40 e6 5c bc 4e d4 bf
       -0.15419501877900677 -0.3173056513997009
0002e0 04 a3 b7 02 43 7c db bf f6 ec ae ec 41 f0 d6 bf
       -0.42945933595051167 -0.35841415513614494
0002f0 28 82 25 8f bf dc db bf 34 a4 a7 53 6e 9e d4 bf
       -0.4353484056391914 -0.3221698586408508
000300 e4 83 83 19 30 56 dc bf b8 69 0f db 43 5b b1 bf
       -0.44276049129081074 -0.06779884431981642
000310 14 9d dc 8c 3d 07 d8 bf b6 30 26 88 60 0a d9 3f
       -0.3754419208148232 0.3912583665448993
000320 bc a5 6c c9 e3 c8 f5 bf 80 30 65 05 4c 68 cd bf
       -1.361545359434202 -0.22974539054337484
000330 d8 90 b4 94 3b 4e b2 bf 13 25 62 11 ce b6 d2 bf
       -0.07150623684407564 -0.29240752885432747
000340 1b e2 9d ce 7c 71 f7 bf b4 75 f5 fe d0 e4 c0 bf
       -1.4652069159475392 -0.13198292206918227
000350 71 aa b9 40 e3 b6 d2 bf ae 5a fc 2b 8b 70 de bf
       -0.292412579735049 -0.4756191186474251
000360 a0 13 0e cd 52 4f ea bf 14 b5 c0 5c b6 12 e5 bf
       -0.8221830372791494 -0.6585342227532771
000370 68 d6 19 eb 3e d0 b1 bf 9c b4 bb 46 69 8f cd 3f
       -0.06958382835167642 0.23093906358500227
000380 2e fa 52 40 67 be e2 bf 64 06 4e 64 3c 15 c2 bf
       -0.5857425934153235 -0.14127306840605336
000390 8a 0c e6 5f f4 d4 de bf d2 8f 07 b0 14 d2 d1 bf
       -0.4817477165708587 -0.2784473151243648
0003a0 11 71 82 e9 63 64 d5 3f 08 26 c0 48 56 ef 9f 3f
       0.33425233653703496 0.031186435880988156
0003b0 de 8b 21 97 f7 50 dd bf 9e 8b ad ce 8f b3 d7 bf
       -0.4580668426407878 -0.3703345793093663
0003c0 32 92 d8 63 bb 02 ec bf c0 f8 05 ff 41 c1 7e bf
       -0.8753334951512157 -0.00750852374801364
0003d0 06 d7 d7 35 ea 4d c2 3f 50 42 6b 6d 40 22 c5 3f
       0.14300277356203867 0.1651077780029646
0003e0 10 fd f9 4a 24 bc bb 3f e8 53 a5 09 2e 79 c2 bf
       0.10833956556779278 -0.14432311507212536
0003f0 9a 75 0b f0 53 78 d9 bf ec 87 23 68 c7 8c b3 bf
       -0.3979692310511723 -0.07636686603976245
000400 c0 8b 1f a2 6d be da bf ce a9 60 14 0f 64 d5 3f
       -0.41787281830164247 0.33423211088179705
000410 f0 a4 b0 6e 04 fe e9 bf 28 cd 3d 96 36 c6 c7 bf
       -0.8122579728998556 -0.18573648773199491
000420 fc 6e 2a 3f 6a d5 d0 bf 36 93 a4 b3 f2 04 d8 3f
       -0.26302581947832926 0.37530200522660395
000430 ec f9 55 43 19 bf e1 bf e8 6b 2d 9a 28 1d dc bf
       -0.5545774760392397 -0.43927969986333304
000440 a8 d6 fd ba 38 df 83 3f 82 aa 8d 8b f7 e7 e5 bf
       0.009703105169801177 -0.6845662809040081
000450 16 0d a6 67 65 9e d0 3f 65 53 05 0c a5 fa d6 3f
       0.2596677314943049 0.35904813932329765
000460 a4 74 12 f5 ed 60 ea bf 2a ca 3e 48 02 4e d4 bf
       -0.8243322168888381 -0.3172612863083112
000470 c4 eb 3b cb 12 b2 c5 bf 40 8f c1 b6 53 77 ab 3f
       -0.16949686931169883 0.0536447678175862
000480 4e 1a 74 d1 8d b5 d3 bf de be fa 02 d7 29 d8 bf
       -0.30795617536970077 -0.3775537041756091
000490 c0 cf b5 96 fb e8 c2 bf 92 49 c9 c5 60 87 ef bf
       -0.14773506983658358 -0.9852756369603404
0004a0 f0 54 a7 13 02 e6 9f bf bd a8 6f 7d 75 12 e7 bf
       -0.03115084881740854 -0.7210032892155805
0004b0 c7 41 45 5a a7 be e8 bf a0 64 ef 22 f2 c9 c8 bf
       -0.7732731593223939 -0.1936628981191335
0004c0 48 9c c9 ee 7f 07 e0 bf 8c 6e 76 ab dd 9d dd bf
       -0.5009154952830466 -0.46276036972424417
0004d0 00 69 0d 3d ae 65 b7 3f a5 d0 25 ed 41 68 e1 bf
       0.09139527311836915 -0.543976748637324
0004e0 3a 60 05 9d 67 dc c5 3f 3b cf 15 b2 3d 38 cc bf
       0.17078871886292452 -0.22046633906904298
0004f0 24 64 9d 1b c8 d8 c1 bf be 14 08 0e 2c 54 dd bf
       -0.1394281515920578 -0.4582624566103951
000500 68 f2 82 33 6d 3c a7 3f dd 98 75 da c1 3e e0 bf
       0.04538289312174443 -0.5076607958588074
000510 36 2a 55 3f b1 55 d9 bf 9d 9c 14 0a dd f9 d5 bf
       -0.39585524735290123 -0.3433754538004424
000520 c0 0f 2e 4b c0 2f d3 bf 9b 9c 4f ec 28 ec d8 bf
       -0.29978949872770144 -0.3894140536999175
000530 22 de 85 17 53 8b e0 bf bf 49 fd 5f 81 5c c7 3f
       -0.517007394736485 0.18251053988440266
000540 6e 76 74 39 c7 26 c6 bf e6 7c 28 1a 4d 38 dc bf
       -0.17305841737190825 -0.4409363513422718
000550 64 4a fd b2 82 d9 d9 bf 59 28 9c d7 a0 e2 c3 3f
       -0.4039007900184173 0.15535364654380393
000560 d2 7a 7f 48 bb f1 e4 bf 27 76 82 7f ff 88 c9 3f
       -0.6545082488990721 0.19949334837012708
000570 d1 51 1f e4 bd 73 ef bf 5c 0a af 16 e5 b4 d0 3f
       -0.9828786330713745 0.2610409471055044
000580 60 3c 7b 67 8e 65 75 3f 3c f8 c5 cc 1e 9f eb bf
       0.005223804728031828 -0.8631738662222754
000590 a1 fa 66 69 26 68 e1 bf af eb ef e9 86 6b cd bf
       -0.5439636286390234 -0.22984396383966785
0005a0 bc 4f 82 3b ba 1d c1 bf a8 1d 0e db dc 68 c8 3f
       -0.13371971040453257 0.19070015617419966
0005b0 9b 35 b1 12 5f 1d c0 bf 96 7a 86 de 55 1c bc 3f
       -0.1258963433523775 0.1098073642992666
0005c0 44 9c 23 9f 65 1a b4 3f b2 1d cb 81 c5 fb d5 bf
       0.07852778563720714 -0.3434919135583768
0005d0 c3 8f 90 1f be 24 be bf 80 41 3c 19 f1 5f 8f bf
       -0.11774814863798526 -0.015319713194487106
0005e0 8d ab 32 dd 99 9c d4 bf 51 a7 68 d0 04 f9 cd 3f
       -0.32205816842422835 0.23416195083819472
0005f0 1c ae 38 cb 13 a3 e2 bf 4a 71 44 43 b3 42 dc bf
       -0.5824068993728733 -0.44157105988576417
000600 97 63 27 53 83 f4 e2 bf 89 61 c5 26 32 ad de bf
       -0.5923477768038649 -0.4793210390685308
000610 e4 9f 64 11 d1 c3 e7 bf 96 7e 52 8b d4 08 dc bf
       -0.7426534023006721 -0.43803895574272056
000620 fa 83 3d d1 82 9b e1 bf 02 f5 ad 63 13 d9 d2 bf
       -0.550233277008487 -0.2944992516930399
000630 ec 55 af e4 5b 0b e0 bf c2 87 38 49 5c a8 d0 3f
       -0.5013865915777251 0.26027590895148134
000640 2a 6e f7 b3 45 96 f5 bf a2 8f 7e 69 32 f1 cc bf
       -1.3491875677053806 -0.22611074591725094
000650 1c 4f e7 5c 08 60 b1 bf 0b f8 3b bc aa 79 d2 bf
       -0.06787159221795175 -0.28867596037150695
000660 ff 0d 21 9b 99 62 f7 bf d6 d4 0e 63 b7 6d c0 bf
       -1.4615722713214152 -0.12834827744305838
000670 b5 eb 2c 2f 8b 7a d2 bf 3f 0a 09 5e fe 34 de bf
       -0.2887294731805768 -0.4719844740213012
000680 42 b4 47 c4 26 31 ea bf dc 0c c7 f5 ef f4 e4 bf
       -0.8184999307246772 -0.6548995781271532
000690 ac 94 4c b3 0b e2 b0 bf 83 7a f0 ce 70 b2 cd 3f
       -0.06594918372555253 0.23200807671033283
0006a0 b4 c8 45 5e a5 b5 e2 bf 14 19 bf b9 45 f1 c1 bf
       -0.584673580289993 -0.14017554826404732
0006b0 97 a9 cb 9b 70 c3 de bf df 2c ed eb 90 c0 d1 bf
       -0.48067870344552815 -0.2773783019990343
0006c0 df 5d 33 76 23 76 d5 3f a0 2a 33 45 c9 83 a0 3f
       0.33533560317070327 0.032255449006318715
0006d0 10 9f 70 0a 38 3f dd bf ab 28 93 0a 0c a2 d7 bf
       -0.4569835760071195 -0.3692655661840358
0006e0 fa e9 de fc f4 e4 eb bf e1 3b 6d f8 50 60 7a bf
       -0.8716988505250918 -0.006439510622683082
0006f0 ed 9c 0c be f1 70 c2 3f a0 2f fa 17 37 46 c5 3f
       0.14407178668736922 0.16620529814497065
000700 de 88 63 5b 33 02 bc 3f 01 8e 70 81 26 56 c2 bf
       0.10940857869312334 -0.1432541019467948
000710 cc 88 5a 63 94 66 d9 bf 1e fc b9 57 b8 46 b3 bf
       -0.396885964417504 -0.07529785291443189
000720 f2 9e 6e 15 ae ac da bf c1 0c 7b d8 92 75 d5 3f
       -0.41678955166797416 0.3353011240071276
000730 6c 8e 1d c4 72 df e9 bf d8 df ae eb 3f a2 c7 bf
       -0.808526404417035 -0.18463896758998888
000740 54 f8 e2 e9 6e c3 d0 bf f0 c1 57 ca 68 17 d8 3f
       -0.2619282993363232 0.3764287925723968
000750 98 3e b2 98 1b b6 e1 bf 40 f5 e5 44 2d 0b dc bf
       -0.5534799558972336 -0.438182179721327
000760 cc 2c a8 7a 4f 26 86 3f 2e ef e9 e0 f9 de e5 bf
       0.01081525891370063 -0.683468760762002
000770 c7 5f a3 1d 9e b0 d0 3f 0d ca 4c 61 a0 0c d7 3f
       0.26077988523820433 0.3601456594653037
000780 6c cc 18 8e 27 43 ea bf 37 67 24 84 7e 3c d4 bf
       -0.8206975722627141 -0.31619227318298065
000790 dd 25 07 43 0b 8f c5 bf 80 44 fd 60 2e 07 ac 3f
       -0.16842785618636827 0.05474228795959224
0007a0 5b b7 59 0d 0a a4 d3 bf eb 5b e0 3e 53 18 d8 bf
       -0.30688716224437024 -0.37648469105027854
0007b0 24 f6 53 7d 7c c5 c2 bf 18 18 bc e3 9e 7e ef bf
       -0.14665180320291527 -0.9842066238350098
0007c0 14 88 98 48 09 ca 9e bf 43 77 62 9b b3 09 e7 bf
       -0.03006758218374024 -0.71993427609025
0007d0 8f 99 4b f3 e0 a0 e8 bf b9 9e ba 9a ea a6 c8 bf
       -0.76963851469627 -0.19259388499380295
0007e0 9d d5 78 19 7c fd df bf e4 f7 2e 56 e2 8b dd bf
       -0.49984648215771604 -0.46166284958223813
0007f0 ce f4 76 4d bd ab b7 3f 2b 9f 18 0b 80 5f e1 bf
       0.0924642862436997 -0.5429077355119935
