assets/improved_agent/blue_weights.npy (npy, 800928 bytes, 1 tensors)

array f8 [1001, 100]
0.2547710305226428 -0.3433627635089954 0.2973092003749238 -0.09619722804830566 0.25959554145149966 -0.4102615732671897 -0.3980835712144437 -0.3061008273837288
0.40453813652214987 -0.3298184872335048 -0.20619527686727335 -0.35498617641131613 -0.08821521471979976 -0.4311514436401098 0.2820460835407492 0.36111019675519096
-0.029504766541156857 0.3536475149066425 0.29179059448963385 -0.32486756420269236 0.314238225814807 0.017227249185145954 -0.002351338780571366 0.08846512304839649
0.48907474544017226 0.3885936632843684 0.15881250704412642 -0.3417197575326484 -0.44904618862551593 0.21211896420326715 0.40675908755323364 0.18763829354503458
-0.1491058623087822 0.29058589622676234 -0.4261995109113028 0.1067114989194039 -0.1213146995177663 0.33992571502500446 -0.26792125873401273 -0.09093973858944637
0.18524398809508247 -0.1552425839811421 -0.20111321449145503 0.12069299205313433 -0.08497842634392017 -0.3151841355872079 0.33600274158555155 0.4427446590743507
-0.20909117185153203 0.23533063436029944 -0.16551450380937094 -0.29818782037705194 -0.1661831905351836 0.1268339957888348 -0.1083239927213473 -0.30741887327387185
0.08905367173565248 0.35239170034790823 -0.13617158316486033 -0.39277845519717147 0.4892512445031729 0.41335795438857603 -0.12671782529656672 -0.28125985822772714
-0.21814785319862484 -0.41928988262610556 -0.4801300338007438 -0.30935380441509563 0.14884813925932627 0.031175959936952546 -0.4984255113638175 -0.4626972015689971
0.05298839434536007 -0.352770828968054 0.17099146009484678 0.18134534874489106 -0.08197206974678495 -0.0999576658952126 0.10677381843296452 -0.13817874886442383
-0.3155492195602343 0.3632980989133774 -0.3878085577696089 -0.4937586106142151 0.28802380952905215 0.21102110764453208 0.3750324837815707 0.38491214418879693
0.30824774632494134 -0.06755439209848868 0.26181982835382944 -0.2532230877801135 -0.4311004456922557 0.0801860842435288 -0.12049417307508714 0.45432597435290123
0.34483858543738366 -0.2218015652085903 0.13155706143899748 -0.13883360410572243 -1.0844333717674361 -0.7424981932111365 -0.09132266538768735 -0.4848290938109168
-0.1395398882506415 -0.8041452209995659 -0.7867154369770548 -0.699984475116105 0.01590627075953871 -0.728953916935646 -0.6053307065694145 -0.4739441868323464
-0.2040427511823819 -0.546978980102692 0.16308807311971893 0.24371742331338472 -0.145332303003739 0.23625474146483624 0.1759630580270517 -0.44382557462372263
-0.07439363994780418 -0.0986002872774362 -0.11513078217834873 -0.024314320349380872 0.3732472089775901 0.27429017335418865 0.04603306364634906 -0.45602324746282813
-0.5618256320232933 0.096291427740685 0.018127221790622483 0.07181075708245244 -0.26188530570655955 0.177806452828985 -0.542027047373885 -0.007591991010775845
-0.23409414291554365 0.2256222250948247 -0.3807007021317901 -0.20676727505202852 -0.2138914416070587 -0.27420059440217237 -0.3169407509540372 0.004865455590552181
-0.20393643676495046 -0.43257690902901413 0.2201752051229694 0.32535188563254447 -0.3249187083141142 0.11637262393926914 -0.5593981515417471 -0.41558059381885815
-0.28048668046536335 0.012530505858655061 -0.22571676616315353 -0.42326700495986486 -0.025249818194527263 0.23654356866191523 -0.2504750730950401 -0.5101712286389777
0.10061937874056176 0.2975304179259939 -0.23949726869434407 -0.3940393016255045 -0.333975389661207 -0.5335933725562854 -0.5929094771985212 -0.4236572943452754
0.03606869586154891 -0.0846515765256296 -0.8923091590961937 -0.5800899750108033 -0.06131509558481968 -0.46707431889823375 0.053598686653040545 0.06549721705889806
-0.1962755596769647 -0.2158057975812056 -0.007529671497215229 -0.25557152230623004 -0.7041810853228454 0.24747056245079524 -0.5005880011673862 -0.6065380540119925
0.17219627306647 0.09671761771435233 0.2622530403837934 0.2706086542586172 0.195468302927164 -0.18338192856107083 -0.13731560134831172 -0.37218109820114376
-0.5469279821548378 -0.03564145221905335 -0.23945218349611744 0.336933200911095 0.2290110489748015 -0.3391943386503965 0.015729524976415332 -0.2577916145267527
-1.0737034697975056 -0.7381641543762234 -0.08850343624264677 -0.48247272318222617 -0.13419597628914667 -0.8014943040422889 -0.7846536126769506 -0.6941777046382601
0.01981952912504281 -0.7273970291988325 -0.6009966677345013 -0.472193575067656 -0.20290400372379688 -0.5460271911820836 0.16524659442181291 0.24478818584906914
-0.14449948769820667 0.23860022130490688 0.1775437074844906 -0.4431967140868921 -0.0715744108027636 -0.09746153981885117 -0.11439004354024002 -0.02369519551752882
0.374651295649826 0.2749866887900222 0.0465747978742196 -0.4544975469843356 -0.5607974425703961 0.0967004923617301 0.02048359241931312 0.07276254600306081
-0.2612661808747075 0.17832393030038374 -0.5408534823941057 -0.007009828855452275 -0.23364135012806975 0.2268974374350573 -0.3798413199025029 -0.20642537029414007
-0.20854752964556386 -0.2720420731000784 -0.31553666428180127 0.006039020570331441 -0.20127495904295106 -0.4312566484267625 0.22120207448027626 0.3282438850470005
-0.32296975218698076 0.1171480150866233 -0.5567472345844702 -0.4145098312831737 -0.2797901650295298 0.013112668013978632 -0.22439650556090188 -0.42261207253512584
00000000: ae07 0427 2b4e d03f 3edc fbcf a7f9 d5bf
00000010: dc40 1a2b 1d07 d33f 80ee 6eac 61a0 b8bf
00000020: c02e 2e9e 369d d03f d43c ffc1 b941 dabf
00000030: 1438 dc83 337a d9bf e610 b9ec 2797 d3bf
00000040: 143c 96ec f3e3 d93f a42e 1200 bf1b d5bf
00000050: 8407 5e59 9b64 cabf 02ff 8df0 17b8 d6bf
00000060: 282d 3bb6 4595 b6bf 68ad 8339 fc97 dbbf
00000070: 086f 3104 0b0d d23f f233 54f1 6d1c d73f
00000080: e045 7b5d 7f36 9ebf 247c b52f 29a2 d63f
00000090: 8a41 2775 b2ac d23f 1808 f252 a1ca d4bf
000000a0: 2ac5 c1a5 7a1c d43f 80a6 661f 05a4 913f
000000b0: 0086 4265 1d43 63bf b858 547a a6a5 b63f
000000c0: a0c3 3d29 004d df3f 064f cff4 b7de d83f
000000d0: 30a3 f9dd f753 c43f 4efc bf8b bcde d5bf
000000e0: fc8f a239 2cbd dcbf 8ca5 0ed7 b626 cb3f
000000f0: 8815 9944 5708 da3f ec67 2017 8804 c83f
00000100: 6009 21a1 e615 c3bf 4242 3e96 f598 d23f
00000110: fcda 3b50 da46 dbbf 684a f7dd 7151 bb3f
00000120: 80ef f3ea 7a0e bfbf 0e84 46c9 57c1 d53f
00000130: 789b 0a35 9f25 d1bf 9001 26a3 d347 b7bf
00000140: 3012 5333 13b6 c73f 04a1 922e fdde c3bf
00000150: bc61 84eb 13be c9bf 607f b965 bce5 be3f
00000160: 203f 036a 25c1 b5bf 662a a414 fa2b d4bf
00000170: 6c7b 9ea4 1181 d53f 0cfe ccb1 ed55 dc3f
00000180: e008 7ee0 7fc3 cabf 9886 2971 501f ce3f
00000190: 3cfd 6f4a 942f c5bf fe6f 255e 8215 d3bf
000001a0: a82c 3fa4 7d45 c5bf dc8e f7ab 183c c03f
000001b0: 803e 1c06 1fbb bbbf cc9a b835 c0ac d3bf
000001c0: 307f b1af 38cc b63f fc11 18eb 958d d63f
000001d0: 1c37 2b08 126e c1bf d24b e93e 4823 d9bf
000001e0: 84c7 aa73 e44f df3f 36fc e8eb 7474 da3f
000001f0: 0c08 bc29 4a38 c0bf fa00 3159 2900 d2bf
00000200: 4421 97d3 44ec cbbf 300f 5b3b a5d5 dabf
00000210: b619 4052 73ba debf f8c8 36e6 73cc d3bf
00000220: ac39 18b1 740d c33f 4008 6741 97ec 9f3f
00000230: d62d b31d 34e6 dfbf ca21 2cb9 d49c ddbf
00000240: 90ce 8f79 4b21 ab3f 74a3 5919 cc93 d6bf
00000250: 0857 8054 0ce3 c53f 000d 120b 5336 c73f
00000260: 9074 bf1e 1ffc b4bf 8022 015a d396 b9bf
00000270: 8016 3d6a 8755 bb3f a4fc af5b d7af c1bf
00000280: a887 925a f531 d4bf 200b 62ab 4640 d73f
00000290: 70ae 2efc dad1 d8bf 8436 2db7 bd99 dfbf
000002a0: 1862 996a fb6e d23f c0aa 0c5a bd02 cb3f
000002b0: 46e3 313f 8800 d83f 92f1 c78b 66a2 d83f
000002c0: 4401 62c1 54ba d33f a0a0 c3a0 3e4b b1bf
000002d0: 8656 0ef4 a7c1 d03f f6e4 269c ce34 d0bf
000002e0: 4683 e252 2697 dbbf f895 6b41 1387 b43f
000002f0: e84f b7c4 b4d8 bebf 3e6b 6440 ad13 dd3f
00000300: c88e b6db d511 d63f 80e1 6262 fe63 ccbf
00000310: 141c 389e dcd6 c03f 5425 9cae 4cc5 c1bf
00000320: 14ea a6ce d659 f1bf 1aca 2592 8bc2 e7bf
00000330: 5442 3915 ec60 b7bf 114d 849b 7007 dfbf
00000340: 6e12 436c 71dc c1bf c4b0 2dc2 8ebb e9bf
00000350: c264 22da c52c e9bf cd9a 8ad7 4566 e6bf
00000360: 30aa dac2 bb49 903f 4ef3 302a 9753 e7bf
00000370: dc5d 7f80 de5e e3bf 60c0 a4ff 1955 debf
00000380: 9037 a8a7 121e cabf f37e e40f da80 e1bf
00000390: 535b 35ea 11e0 c43f 0756 4ced 2132 cf3f
000003a0: b809 3ab8 3f9a c2bf 6be6 0e6a 983d ce3f
000003b0: 18e2 c31d f585 c63f 76c9 0862 a367 dcbf
000003c0: 1c31 9b2a 760b b3bf 5898 3b51 de3d b9bf
000003d0: 510a 3800 3679 bdbf a475 e66a dae5 98bf
000003e0: 2273 f842 48e3 d73f 03e8 0a5f f88d d13f
000003f0: 7ea0 ca4d a591 a73f 5163 8421 7c2f ddbf
00000400: c206 73bf 79fa e1bf 2009 0815 8ea6 b83f
00000410: 7041 0843 f18f 923f e08d 2b95 3062 b23f
00000420: 3802 d495 bac2 d0bf 7489 f5a1 5cc2 c63f
00000430: bd95 401b 4958 e1bf 401a a591 c718 7fbf
00000440: d0f2 0000 ccf6 cdbf 163a 0467 30e1 cc3f
00000450: 0019 4e7a 665d d8bf c4a1 1d9e 5977 cabf
00000460: be5d 4c75 cb60 cbbf e011 60a6 808c d1bf
00000470: 5c81 07dc c148 d4bf 80d6 43ca cced 733f
00000480: 4d22 2fd3 961a cabf 5433 520f 57af dbbf
00000490: dc55 b27c b32e cc3f 1ef5 1eb7 90d2 d43f
000004a0: ee54 84d6 77cb d4bf b607 f8a5 98ca bd3f
000004b0: a911 caf3 96e6 e1bf ec78 d358 df98 dabf
000004c0: 57fd e367 7ef3 d1bf 600d ec06 98a9 893f
000004d0: 1d31 6a78 49e4 ccbf c5d2 f17d ce16 dbbf
000004e0: 7073 809d 16db 99bf 06b4 bd45 0f47 ce3f
000004f0: 9102 da99 c807 d0bf 60aa cb9c 5253 e0bf
00000500: 4cd8 080d 31c2 b93f b8ab a305 bd0a d33f
00000510: 1c03 43b4 d8a7 cebf 827e 749e f037 d9bf
00000520: 20e1 1050 da5f d5bf 1abb 8f68 3213 e1bf
00000530: 9fcb c14b 1df9 e2bf fb2f fb7b 331d dbbf
00000540: 6efa 449a 9877 a23f e87f bbc8 b9ab b5bf
00000550: 45a9 07f0 cb8d ecbf 5c15 edd9 1890 e2bf
00000560: 8869 9334 b164 afbf 770a 1eaf 8be4 ddbf
00000570: ac14 917c 4971 ab3f 1d3a 3ff5 6cc4 b03f
00000580: 4e88 e8ba 8e1f c9bf 3201 733d 869f cbbf
00000590: c058 48cd 6ed7 7ebf 4007 86a8 485b d0bf
000005a0: 8c8c 7dc5 a688 e6bf 4475 398a 1dad cf3f
000005b0: fc15 b920 d104 e0bf 065a 387e c268 e3bf
000005c0: 3423 a808 870a c63f 74b9 075d 7cc2 b83f
000005d0: be65 eef9 c0c8 d03f 8f8a 03f6 a651 d13f
000005e0: 7807 3df8 1a05 c93f 4c71 ec1c 0f79 c7bf
000005f0: e2c2 82c0 8e93 c1bf 54a6 3dab d0d1 d7bf
00000600: e2e9 931c 6f80 e1bf 0058 53af 983f a2bf
00000610: b12a 8980 5ea6 cebf 5062 b645 5090 d53f
00000620: 947c e2ea 3b50 cd3f ae79 df2b 5cb5 d5bf
00000630: c0d8 6b8d 661b 903f 08d4 6466 a87f d0bf
00000640: b71c 86b0 e32d f1bf 1203 c46e 0a9f e7bf
00000650: 07ec 3e44 29a8 b6bf f9e6 d145 d5e0 debf
00000660: a755 b570 552d c1bf 5757 f961 d7a5 e9bf
00000670: 1858 a4e4 e11b e9bf dd13 6129 b436 e6bf
00000680: 5f1e a815 924b 943f b8ba 7322 d646 e7bf
00000690: d496 1d5d 5d3b e3bf 7800 9366 6b38 debf
000006a0: 4b4f 1c26 c2f8 c9bf 3d52 1b04 0e79 e1bf
000006b0: 8195 68e7 cc26 c53f 3c9f 5522 3855 cf3f
000006c0: 39ed f98e f57e c2bf 0456 a9b9 738a ce3f
000006d0: 42d4 a090 c0b9 c63f cea9 2cc0 555d dcbf
000006e0: cfda a059 b352 b2bf cec7 234e 3df3 b8bf
000006f0: fc4b fe77 aa48 bdbf 76cb 47a7 8d43 98bf
00000700: f814 8e6d 49fa d73f fa0f ccc4 6199 d13f
00000710: f20a 60e3 a6d8 a73f 893c 1ae1 7c16 ddbf
00000720: 36a6 707a 0df2 e1bf f362 330c 5dc1 b83f
00000730: eca2 2e9e a6f9 943f 94f3 74f3 90a0 b23f
00000740: 9517 9ac9 95b8 d0bf 94fe 5d8c 51d3 c63f
00000750: c3ee 59f6 ab4e e1bf d1a1 f49a 56b6 7cbf
00000760: 548c e5b2 f5e7 cdbf 2436 aaa8 f90a cd3f
00000770: 76a5 a9f7 514f d8bf cf2f 3d83 256c cabf
00000780: f7a0 be79 afb1 cabf c974 c627 2369 d1bf
00000790: 86df 71b1 c031 d4bf 7053 973d 5fbc 783f
000007a0: 72ee 4bbb 60c3 c9bf a23b 4b7c b599 dbbf
000007b0: 479e d97d 5950 cc3f eee2 d8a3 f201 d53f
000007c0: 3061 cf52 89ab d4bf df9e 968d 69fd bd3f
000007d0: 3cb8 9593 dfd0 e1bf 51d4 4e3e 5487 dabf
000007e0: 60d5 2202 15e8 d1bf 9849 4482 d0da 8a3f
000007f0: b941 5c52 06b9 ccbf a7b8 9b81 130c dbbf
