assets/improved_agent/green_weights.npy (npy, 80208 bytes, 1 tensors)

array f8 [1001, 10]
000000 54 a3 cd 7a ac 0c d2 bf f0 5d 2b e6 b5 d0 b6 bf
       -0.28202354424006626 -0.08912217015619439
000010 3e 93 25 34 d2 4c de bf ca c4 82 57 5a d2 d7 bf
       -0.47343878834208286 -0.3722139219854169
000020 bc 06 30 7f f0 b6 c5 bf 90 56 54 8d d7 c6 cc 3f
       -0.16964536867458502 0.2248181762776551
000030 d8 5f f3 e7 fc 0a b6 3f 94 06 c8 f7 9f 3f c7 bf
       0.0861051622663348 -0.18162917708109616
000040 54 5a 92 55 c7 0e cf bf b0 78 50 ea 1b fd c7 bf
       -0.2426385085897943 -0.1874117750275608
000050 a0 de 67 58 47 69 9e 3f d0 44 58 9e 35 e5 92 3f
       0.029698481341226768 0.018452489652251824
000060 75 37 b5 60 51 6a d7 bf 5c 82 83 14 e8 17 d1 bf
       -0.36586412853363665 -0.2670841408089808
000070 38 d7 78 1f 81 27 af bf 11 87 1a 9a ec 45 d5 3f
       -0.06084826955013373 0.3323928360861013
000080 c7 34 f8 f9 62 7a c8 3f 04 9e ce a1 3c f5 b2 bf
       0.1912349434427709 -0.07405451727264994
000090 1e bc 22 3f d4 71 c1 bf f3 b4 c1 a7 51 c0 b4 bf
       -0.13628628809735316 -0.08105955453511964
0000a0 72 1b dd 52 0a bd e2 bf 65 99 d3 1d 4d 5c ca bf
       -0.5855762117797509 -0.20594181019186944
0000b0 3a 44 c2 a4 65 e3 e2 bf 5c d3 52 fd 61 74 df bf
       -0.5902584283777579 -0.4914784406531021
0000c0 6c 86 57 6f 7a 90 d2 bf 32 6e c8 3a 89 69 ba 3f
       -0.2900682532618706 0.1031728523743645
0000d0 08 89 62 73 c6 72 a3 bf 06 13 dc 73 d9 68 d3 bf
       -0.03798504026896593 -0.3032745009843868
0000e0 94 c9 f9 6a 74 64 d7 bf c1 d8 58 b5 9e db d3 bf
       -0.36550627180909 -0.31027953824685645
0000f0 e2 39 fc 4d c5 1e c2 bf 98 02 f5 12 40 bc b3 bf
       -0.14156404788850724 -0.07709122145480263
000100 76 f0 8f f8 3b a4 dd bf 5e 3b 5e ac d2 51 d7 bf
       -0.4631490638128136 -0.36436907608815783
000110 bf f4 55 ca c7 a2 c4 bf fa 7e dd cc d4 40 cd 3f
       -0.16121766452480377 0.22854099276718626
000120 ae eb 00 ef f6 42 b7 3f f3 0d 5f d3 85 53 c6 bf
       0.09086554846810088 -0.17442391224731998
000130 0f 7b 9a c1 bb 4a ce bf 69 99 58 56 10 39 c7 bf
       -0.2366556830720232 -0.18142894950978963
000140 1e 8b e1 69 5d d7 e5 3f 70 42 59 e3 c4 7f cf 3f
       0.682539660261998 0.2460867033101013
000150 7c bc 88 16 cc cd b0 bf de f9 c4 6d e4 a6 c0 3f
       -0.06564021635198175 0.13009314880214523
000160 01 9d 50 e0 50 e7 c3 3f 6a d9 c4 cd 7f 72 e4 3f
       0.15549670174480215 0.6389769572186144
000170 db 51 f3 19 47 a9 e3 3f bf de f4 4b a7 12 ca 3f
       0.6144137865872453 0.20369425972761765
000180 9f a0 57 45 bc 00 c5 3f 47 ec 11 ea 02 97 c9 3f
       0.16408494363645773 0.199921001712797
000190 5d 7b 9e e8 2c a8 f6 bf 50 a5 dd e9 ee 12 de bf
       -1.4160584532434861 -0.4699055942388286
0001a0 d6 be 38 0e b7 bf e8 bf cc e4 53 92 af bf e2 bf
       -0.7734027173773608 -0.5858991487467846
0001b0 06 80 53 53 29 ac e1 bf e0 1d 55 b4 29 01 af bf
       -0.5522657992805768 -0.06055574728321367
0001c0 58 ab a2 8b b3 e5 b7 bf 96 6f 6a b8 53 21 e0 bf
       -0.09334871443813364 -0.5040682412977613
0001d0 1e bf 11 7a ce 65 e1 bf 34 2c e3 d0 3c 40 e0 bf
       -0.5436775573889212 -0.5078414993125819
0001e0 38 19 82 fd 86 94 d9 bf 4e 42 ea 89 1a 93 d1 bf
       -0.3996903873125066 -0.27460349529522865
0001f0 ec 7f da 40 50 c6 e3 bf 9b 79 29 7e 2c 0f dc bf
       -0.6179581896467403 -0.4384261352587601
000200 9c 23 25 1d 68 58 cc bf 97 b3 6a e7 ab 0a d1 3f
       -0.22144795821284624 0.266276336663219
000210 d0 86 57 6a 63 65 ce 3f 00 a1 cd 03 d5 9a c2 bf
       0.23746912662959696 -0.14535010038094498
000220 4a b1 2c 16 25 2a c7 bf 78 93 b0 65 79 16 c3 bf
       -0.18097365935080695 -0.14912335839576563
000230 f4 28 63 6b 4c ae e5 bf bb 48 04 1d c6 7a d5 bf
       -0.6775266740235382 -0.33561852296510225
000240 32 cd 8f 68 f5 48 e6 bf ef 72 5d 99 9a 5d e0 bf
       -0.6964060823651492 -0.5114262576495018
000250 7d a1 71 8d b9 25 d2 bf b8 d8 da c3 15 4c c9 3f
       -0.2835525399482533 0.19763443053461116
000260 ee 54 0f 95 a4 4e c6 3f e2 d2 15 d9 93 b1 ca bf
       0.17427499082865644 -0.2085442361818855
000270 2a ce 6c 2b f5 52 d0 bf 24 25 38 3a 91 d3 cd bf
       -0.25506333580708207 -0.23301902144184183
000280 1f 83 af f6 01 c7 e6 bf bb 7f 36 b0 c0 6a d6 bf
       -0.7117929285123842 -0.35026566704072665
000290 b3 8f 83 81 0c c2 e6 bf 6a f2 8b a5 30 d1 e0 bf
       -0.7111876039093573 -0.5255358918507913
0002a0 16 70 7a d9 d4 b4 d2 bf bf 8b c8 0c b6 62 c8 3f
       -0.2922870754061945 0.19051242469967453
0002b0 fa a3 67 1b ac 69 c5 3f 34 b4 11 1f 9d ee cb bf
       0.16728736246230352 -0.21821941391991262
0002c0 cc d4 4a f2 de ea d0 bf 0f 9e 0a 39 bb af ce bf
       -0.26433538113935806 -0.23973789487102734
0002d0 56 42 61 04 bc 77 cb bf 6a 11 4e 6e bd 9e c7 bf
       -0.214591505182869 -0.1845318592642216
0002e0 30 d4 fb 84 5b 74 e1 bf 37 3c 05 3a 0d e7 d6 bf
       -0.5454537961328523 -0.35785227457103325
0002f0 20 f2 d5 c0 e5 32 c0 bf 4f 8b 70 e7 ca ac d6 3f
       -0.12655326762968944 0.3542964229729266
000300 03 49 c3 06 38 50 d5 3f e8 8b b1 f3 d3 df a9 bf
       0.33302117023880856 -0.05053579664015456
000310 18 77 ed e4 f3 3d b9 bf 60 26 e4 ed b6 71 b3 bf
       -0.09860157336285302 -0.0759538965977753
000320 1c 7a f4 e0 2e 99 f0 bf b9 af 90 d2 f1 b8 d5 bf
       -1.03739822266619 -0.33941312373167026
000330 d7 85 ed cd 02 9e e6 bf 46 59 49 f5 35 56 e1 bf
       -0.7067884466197779 -0.5417737761261285
000340 a6 6c f4 69 42 11 cf bf 57 32 e8 5e d4 00 cc 3f
       -0.24271421598027593 0.218775316563909
000350 0c 86 3b f1 ad 8f bf 3f ce 40 ee 37 a0 a9 cf bf
       0.12328612460580518 -0.24736407023420387
000360 0d 42 34 69 3e a8 d7 bf 55 9b d2 7b d8 45 d8 bf
       -0.36964378618088817 -0.37926303951319557
000370 f2 0a 8b 40 5c 84 e0 bf 93 72 20 54 6e c6 c6 bf
       -0.5161572704895134 -0.17793063266517048
000380 28 ea ee 39 e4 83 e1 bf 1c 3c 12 42 b1 56 d8 bf
       -0.5473500377186769 -0.3802912850596287
000390 8e ff e6 31 9a cb b4 bf 8a 50 71 57 a7 34 d8 3f
       -0.08123172491377614 0.3782137254650101
0003a0 f2 57 cf 24 a6 39 d2 3f de a7 da cd 55 fc b5 bf
       0.28476861567230494 -0.08588157916770409
0003b0 18 19 61 80 0c 62 ca bf a8 cb 9d a5 40 9d cb bf
       -0.20611721294898966 -0.21573646628129706
0003c0 90 d4 ac 08 43 63 d0 bf 8a 9b 29 49 10 4e b0 bf
       -0.25605846259288345 -0.06369115625567026
0003d0 23 37 a8 0a ee fa db bf dc c6 c8 5b f9 7b d1 bf
       -0.4371905426095159 -0.2731917759257223
0003e0 f0 3d e2 ce 29 fd a2 3f a3 15 93 43 a4 73 df 3f
       0.037087732796063366 0.4914332065494255
0003f0 82 da bc 36 14 25 d9 3f 50 ed fa 96 b2 9b a0 3f
       0.39288812013129626 0.03243787854213542
000400 08 53 cb fe fd 0a b8 bf c2 2c 36 0f 53 55 bc bf
       -0.09391772718965907 -0.11067694779756024
000410 23 04 18 bb 42 46 e2 bf a7 67 6e 1a aa 38 c3 bf
       -0.5710767416168249 -0.15016676226224243
000420 e4 25 5b 82 50 3b e1 bf 81 db d6 55 ac f7 d7 bf
       -0.5384905382172147 -0.3744917715334211
000430 dc 8f 96 fd c8 ea b3 bf db 7b 19 4a 05 56 d8 3f
       -0.07780128661266822 0.3802502845409756
000440 f0 73 e6 bc a8 6c d2 3f 08 28 b3 49 15 8c a1 bf
       0.2878820271233158 -0.03427187466293452
000450 69 1a 43 f6 c3 fb c5 bf 20 2b 09 7e 5f 9a c8 bf
       -0.17174577259557403 -0.19221109060375685
000460 d4 30 7f 48 86 b6 da bf 65 22 58 83 81 dd b8 bf
       -0.4173904140450422 -0.09712991196296057
000470 23 de 61 37 8c 1b df bf 47 b0 75 a9 b7 92 d4 bf
       -0.4860563793986065 -0.32145492123413927
000480 1c 65 13 21 d7 f9 99 bf 15 a7 7a f6 f9 ba db 3f
       -0.025367127794060015 0.43328713484025744
000490 2a 9f 47 69 9d d1 d5 3f 44 8a e0 41 22 99 92 3f
       0.34091887742259763 0.018162284155673683
0004a0 e9 87 01 3b b5 63 be bf ac d4 46 25 76 d0 c1 bf
       -0.11870892229629217 -0.139174240304475
0004b0 0c 91 42 c0 ef 7f dc bf b0 9f 23 c3 16 5c bb bf
       -0.44530862594025744 -0.10687391533031021
0004c0 76 bd 54 87 31 bb df bf 9a 8f 68 f9 5c 32 d5 bf
       -0.49580038276595617 -0.3311989246014889
0004d0 a4 2b 84 b5 6f 08 a2 bf 92 37 34 db 1f 1d db 3f
       -0.035220614345312456 0.4236526146568106
0004e0 a7 2f 01 4e c3 33 d5 3f 30 24 f3 1a 01 77 81 3f
       0.3312843572391508 0.008527763972226848
0004f0 3a 62 bf a6 bb 74 c0 bf 52 93 2c c5 c0 0f c3 bf
       -0.1285624088475446 -0.14891824367182466
000500 1c 39 b3 72 23 2d ed bf 86 9f 99 f8 04 5e cd bf
       -0.9117600670086037 -0.22943174494434632
000510 fc 3c 54 13 b2 60 e3 bf 04 ae 8e d6 70 b0 dc bf
       -0.6055536630173317 -0.44826909020295624
000520 28 0f 62 34 92 06 bf bf b6 d1 40 94 81 ba d5 3f
       -0.12119401720889 0.33950843313075596
000530 89 c4 04 ad 3a de cf 3f 6e ef c2 97 cb 61 ba bf
       0.24896939705061907 -0.1030547376166717
000540 f4 00 de 9e c4 e8 cf bf 12 68 bc 3f f4 05 d1 bf
       -0.24929101712405777 -0.2659884092732919
000550 fb 9d 3f d2 84 1d f0 bf 29 9b 56 83 8d 68 d0 bf
       -1.0072067463714791 -0.25638139558798173
000560 c8 43 5e b1 44 34 e4 bf d2 5e 8e 62 11 e3 dd bf
       -0.6313804115508157 -0.4669841253721475
000570 ce e4 1b c8 55 0d c2 bf 6b d1 b1 95 d1 56 d4 3f
       -0.14103195448823275 0.3177989923344941
000580 2f bb bd db 71 60 cd 3f 3a 86 d6 a5 e1 d4 bd bf
       0.22950576047466018 -0.1165295629384894
000590 fc a3 e9 9d 8d e3 d0 bf 63 c9 2c 59 85 07 d2 bf
       -0.26388874455602696 -0.2817090388154126
0005a0 a8 34 6a 6a fb f2 e4 bf 6b 8d a1 7d 93 7b c2 bf
       -0.6546608999648429 -0.144396244376462
0005b0 8e 59 1b cf e2 9e e0 bf 3e 4d 77 24 9b e5 d6 bf
       -0.519395260339296 -0.3577640396226406
0005c0 30 c8 0b c5 05 54 9c bf 4f 07 6f 1d 3c 98 db 3f
       -0.027664270545706582 0.43116667627702027
0005d0 0b b2 64 b2 fc da d5 3f 80 3a 0a 81 1e 27 5d bf
       0.3414909116861799 -0.0017793462649568215
0005e0 50 19 ea a5 f8 16 c3 bf df e9 4d 29 83 b9 c5 bf
       -0.14913852788249438 -0.16972388760389287
0005f0 93 65 0e 3e 4e ed d7 bf 70 ad 27 83 b6 18 89 bf
       -0.3738589864747947 -0.012254167439968738
000600 6f d9 0c 13 8c 6e d8 bf 6e 85 3d ca d7 9f ca bf
       -0.3817472635304488 -0.20800301909461488
000610 7e b2 4a 1f b9 2e ba 3f 43 40 6e ba 9a fd e1 3f
       0.10227543844184514 0.5622075692390428
000620 1b dc 00 be 6b 04 df 3f a8 9d b0 a4 79 43 c0 3f
       0.48464482836738093 0.1270591787481241
000630 e0 35 d8 83 84 67 91 bf 2c 5d 7b 4f ec 3d a3 bf
       -0.016996450946001107 -0.0375818106673996
000640 6f 9b 01 6b 1c b3 e5 bf 6a cf 65 7f dd e0 bb bf
       -0.6781141366926543 -0.10889992103858295
000650 de 0f cd be fd 9d de bf 26 f9 de 90 5d 7f d3 bf
       -0.478393017129063 -0.3046487726932291
000660 20 8c 9d 04 27 0f 77 3f c1 51 3a b7 dc f2 dd 3f
       0.0056296848432309254 0.46794813054409806
000670 56 ad 5e 00 13 fc d8 3f 78 00 b1 a5 20 cb a0 3f
       0.3903853896724362 0.03279974005317937
000680 8c c8 7e 17 44 7b bc bf 2b 2d 05 a1 13 b9 c0 bf
       -0.11125588964094585 -0.1306480919105096
000690 4d 1d 01 5e 24 9b e3 bf 88 da c7 3a fc 29 b6 bf
       -0.6126882396719481 -0.08657814440798905
0006a0 e1 d1 e3 91 79 34 dd bf ee 7b b7 3f a5 11 d2 bf
       -0.45632781264364836 -0.2823269960626352
0006b0 45 2a 83 17 91 e2 9c 3f f9 ce 61 08 95 60 df 3f
       0.028208033619004053 0.49026990717469193
0006c0 53 eb 47 2d 97 65 da 3f 3b ea ec 2e e3 38 ac 3f
       0.41245059415785085 0.05512151668377326
0006d0 98 d0 d9 63 33 d5 b6 bf 74 65 6c fd 45 bb bb bf
       -0.08919068515553119 -0.10832631527991571
0006e0 f2 52 0b e9 e4 40 e5 bf 9a ec 4e 91 97 6f bb bf
       -0.6641716529507831 -0.10717150971952308
0006f0 96 85 37 d7 cc 8f de bf a3 2f 0b 85 f8 6c d3 bf
       -0.47752686517022747 -0.30352604858921434
000700 d6 f6 ca 6d af 3f 81 3f 40 ff 8b d2 cb 15 de 3f
       0.008422251260863527 0.47008033333985466
000710 9a 1b 72 f7 cd 1a d9 3f e0 05 bd 79 4d b6 a2 3f
       0.3922610203230136 0.03654710875572298
000720 5c ac 09 7e b9 a3 bb bf 06 37 36 cc aa 37 c0 bf
       -0.10796698882192984 -0.12669882746961764
000730 b4 ba 11 ff 4f ca e3 bf 04 7d a8 b9 f4 7c b7 bf
       -0.6184463483640088 -0.09175042660398353
000740 9f 08 60 07 34 90 dd bf bd 93 21 cf 4f 70 d2 bf
       -0.4619264671347398 -0.28810496547367476
000750 c4 39 7f 15 63 6a 98 3f 26 9b 75 88 74 12 df 3f
       0.023843334376403083 0.48550141645539424
000760 80 b7 5b ad 76 17 da 3f 0c e5 09 29 93 9b aa 3f
       0.40768210343855316 0.05196819187126253
000770 c6 3c 63 a6 16 b1 b7 bf 30 7a 0e 59 f2 70 bc bf
       -0.09254590570639029 -0.11109842943412995
000780 b9 14 d3 cd 7a e1 e2 bf 21 3d a6 ad d9 f2 b4 bf
       -0.5900243778238724 -0.0818306015919359
000790 fd 1a 7f c6 d9 eb dc bf c4 03 21 0c c9 cd d1 bf
       -0.45189518341469165 -0.2781851404616271
0007a0 5a 2f c1 b3 cb 3a a1 3f 1f 2b 76 4b fb b4 df 3f
       0.03365170068045016 0.4954212414674419
0007b0 25 8c 9b 74 56 b6 da 3f d1 64 0e 41 c9 af af 3f
       0.4173790110345997 0.061888016883310144
0007c0 e3 fc 60 9a fb 26 b5 bf 4d 3a 0c 4d d7 e6 b9 bf
       -0.08262608069434267 -0.10117860442208233
0007d0 90 bf 8c 30 ac e6 ec bf 1d e7 44 35 3e 4a c0 bf
       -0.9031582782972567 -0.1272657165625838
0007e0 f8 fe e0 01 c9 58 e0 bf 35 b7 99 53 75 34 d6 bf
       -0.5108380352685051 -0.34695180095774286
0007f0 fb 9c f3 d2 a3 ca b1 bf 40 61 0e 7b 79 c1 da 3f
       -0.06949829006372348 0.4180587484093117
