assets/improved_agent/green_weights.npy (npy, 800928 bytes, 1 tensors)

array f8 [1001, 100]
-0.2387324740986554 -0.33644758545722486 0.3666119720836537 -0.43509900156673764 -0.052086763471082986 -0.08638492433174094 0.015207604655190332 0.3209455808404139
-0.37960746185523375 0.2548513873258206 -0.16582710414272306 -0.39753603182458885 0.43755009706341264 -0.2142653045461771 -0.13283116941762452 -0.29096135561741643
0.17643414779073374 -0.26248976994079143 0.05114876057816631 0.19140482607068088 0.31257459234224594 0.0561324716539181 -0.26745744831087703 -0.29705205445483085
0.29072148477765947 0.10721901913693921 0.18556304934703738 -0.268260135411557 0.4040452561537904 0.3161117336449798 -0.08120488151144767 -0.4855166894198597
0.4499978984887989 0.15248580845204907 -0.036967179270791184 0.4992648876096031 -0.3843319824688961 -0.19454150340846643 -0.25350224869912474 -0.4714067820010799
-0.41084251624997903 0.12900766222311544 -0.09868567557193209 0.12477031545067185 0.08306678203643103 0.3167470594593752 -0.08018349931662994 -0.24404939252078572
0.44469161331139495 -0.08027773414794714 0.0029252005400070002 0.23984144050905032 0.3998377615109039 -0.4575044431464572 0.3837115813424321 -0.4157437779773253
0.3585039641615092 0.17760919929834318 0.2118117291146262 0.2519160790517715 -0.4789497131458228 -0.14988035758099116 -0.3733431585248267 0.30015456175420574
-0.3946344015328074 0.1379985089902962 0.005120589163410072 -0.281242479472261 -0.33758432942855154 -0.22465729580023175 -0.1303722569024931 -0.18008188091122734
0.015855501303983055 -0.2195002909395497 -0.4837161518539016 -0.1078718529677789 0.20233932788769926 0.14425710888663057 -0.30006044599383985 0.4579973348219394
-0.1551662882707 -0.35935437625763045 0.4684705254837006 -0.19814311662701156 0.4026684139530782 -0.3709483882573097 0.460853819922457 0.37382574370596955
0.4141541838055278 -0.38227614276074073 0.32543951259585524 0.4857470163649723 0.08937230253010608 -0.013992410100459596 0.347090596281017 0.18881580809596554
0.42624494220089704 -0.39920824119612563 -0.06522605932868075 0.4905844731582869 -0.7057539744441478 -0.4976157894980222 0.19811794058645646 -0.5999301193357349
-0.21508642437598033 -0.2567104126930382 -0.1606122542984068 0.15245154934321667 -0.555427320808831 0.07170570091582357 -0.3269953081835204 -0.4531548630229817
0.3794031371741838 -0.2711482000899879 -0.18908203278872635 -0.3497403476793543 0.11575905921066884 -0.3206367298300203 -0.009526328001898586 0.12820160879977993
0.1440805608450487 -0.002014488235310752 -0.32824745183143444 -0.356520536159724 0.2319137639805985 0.04576825470854963 0.12213000219515135 -0.32905013893211443
0.34061220900190436 0.25003564286176516 -0.246035999280445 -0.5423995849636706 0.39052941678390574 0.09431011982769706 -0.0944964713548726 0.4391500093644394
-0.44638605033487155 -0.2540099851133596 -0.3155563165651002 -0.5360464360281376 -0.5738421771548764 0.07275679885201361 -0.15749339636899307 0.06724102336659044
0.026176704308839414 0.2573001243058244 -0.1415480775396501 -0.3028571133178467 0.3833270350883748 -0.14419916979692649 -0.1674002878212902 0.18106244844711245
0.3383869970825143 -0.5176193213916209 0.3242646461888813 -0.4778624854973278 0.2943814273666679 0.1161584348699536 0.1476891923197849 0.18512176989047846
-0.65476957209942 -0.21055544616105606 -0.4367762056767127 0.2381004938882303 -0.45599897975582754 0.0738759721954549 -0.061070416560297075 -0.344675526624147
-0.4037753351522587 -0.29360626009576 -0.2988662883996903 -0.2382288408004562 -0.044934502216574385 -0.27896877264444286 -0.5425238726509626 -0.1693226173961685
0.13890628073581324 0.08346710536607313 -0.3634934931457259 0.39192124403872475 -0.33098614722429714 -0.4200294648376953 0.4050374783318146 -0.260197184492987
0.341303835730058 -0.435070925052151 0.3946628141987498 0.3103926965540835 0.34796317808182065 -0.451225107056269 0.14229382618585823 0.42254379909407136
0.023296211746891476 -0.07863206412751737 0.2831691606320377 0.12202149893467253 0.35729597790536877 -0.46528433197934027 -0.13417502362420902 0.41876263535044495
-0.4585707195305171 -0.4268535243658848 0.26888020571859383 -0.528198508105897 -0.1433548131461424 -0.18594814756090078 -0.08888064306856888 0.2251525066707551
-0.48466505567669355 0.14246796604796097 -0.256233043051383 -0.43289743025966393 0.39966056993750154 -0.25061326824772057 -0.16854710094645903 -0.32948291491603654
0.13629399105293616 -0.2998242989088034 0.01073110476141918 0.1484590415630977 0.2148428259771861 0.018242944528007014 -0.3079900190681167 -0.33598560431745667
0.25244869582286583 0.06602568747186739 0.14266493403741867 -0.30823770801089756 0.3608696417652221 0.2702930756250829 -0.17430438805060708 -0.5218646531214033
0.4110643486261731 0.11512635210615983 -0.07368023907640983 0.4596849412067067 -0.4255698180564088 -0.23291245239870137 -0.29502138472283285 -0.5155115041858703
-0.5021105659250384 0.09329173069428093 -0.13695846452672575 0.0880572556450532 0.046992936587302185 0.27783505614809173 -0.12073184526118733 -0.2817595806031885
0.40386196693064214 -0.12366423795465917 -0.09663802268915281 0.2013198812104302 0.35864442984583206 -0.4970843895493536 0.34479957803114863 -0.45760505273401003
00000000: 289a 5f24 c98e cebf 34d8 1674 5b88 d5bf
00000010: 86f7 9a0f 9276 d73f ca16 907b a9d8 dbbf
00000020: 1059 53c3 1dab aabf 904c df88 521d b6bf
00000030: 8004 2825 2a25 8f3f de56 6055 5f8a d43f
00000040: 4a17 7f18 7d4b d8bf 6ee5 7931 7c4f d03f
00000050: 40ac 8a92 d239 c5bf 30c4 eaf7 3a71 d9bf
00000060: 56ef 4f1f d200 dc3f 68be d8a5 0b6d cbbf
00000070: 88e1 449c 9c00 c1bf 4cb4 b160 1c9f d2bf
00000080: 9c54 54e7 6495 c63f 6e89 5be4 a1cc d0bf
00000090: 900c d49b 2b30 aa3f 0894 220e f47f c83f
000000a0: 1ee9 eadc 3801 d43f 5094 fe33 65bd ac3f
000000b0: e646 64d8 051e d1bf 82f5 c59e e602 d3bf
000000c0: c255 5749 2e9b d23f 58cd b3a4 b472 bb3f
000000d0: d451 25ae 87c0 c73f 5c71 1a8f 2c2b d1bf
000000e0: cc34 52a2 e0db d93f 72c5 78b5 2c3b d43f
000000f0: 5002 5ed6 d7c9 b4bf 741c ae97 b412 dfbf
00000100: b4cc 51fc c3cc dc3f 08ed 33ac a784 c33f
00000110: 30a1 fcb3 5ced a2bf 54c2 14b7 f4f3 df3f
00000120: 32b0 e02b e598 d8bf 0c51 6d69 bce6 c8bf
00000130: 4403 e87e 6139 d0bf d0a9 f359 872b debf
00000140: 8a66 c668 3e4b dabf cc41 17b5 5283 c03f
00000150: f044 2ae5 7643 b9bf 104b 5f88 f2f0 bf3f
00000160: 90fd 3a58 dd43 b53f 1adc 5e75 9545 d43f
00000170: 5067 3ee3 e786 b4bf f422 beaf 023d cfbf
00000180: 3c96 fecf d375 dc3f a82d c3e2 148d b4bf
00000190: 000f ea14 97f6 673f 901f 9bd3 1fb3 ce3f
000001a0: a04a 591f f196 d93f acad 45b7 c047 ddbf
000001b0: 8494 3d05 bb8e d83f f265 7bca 8b9b dabf
000001c0: aad7 639c baf1 d63f b441 3af3 e5bb c63f
000001d0: 986f ba90 a51c cb3f 4a4a 379e 641f d03f
000001e0: f6f3 98b2 1ca7 debf 24c3 0f91 472f c3bf
000001f0: 962a 03b4 dae4 d7bf 8eb0 9e7a bb35 d33f
00000200: a86f 1da6 b041 d9bf 704a 8165 efa9 c13f
00000210: 00bb e3af 53f9 743f 7413 e574 e0ff d1bf
00000220: fe69 a24d fb9a d5bf 9888 22fd 91c1 ccbf
00000230: 74d8 d9c1 09b0 c0bf 6cd5 8e4e ec0c c7bf
00000240: a0c9 3fae 6c3c 903f fc1f 86e5 9518 ccbf
00000250: 469b 3097 34f5 debf e0d0 a760 7d9d bbbf
00000260: f873 fc4d 41e6 c93f 7419 7156 0477 c23f
00000270: 4878 97ba 3034 d3bf fac8 ad0d d44f dd3f
00000280: 1c3d c82a 7ddc c3bf 36dd 6c7f a9ff d6bf
00000290: 5aea 85cc 6bfb dd3f 7096 ebee c05c c9bf
000002a0: dee1 43bd 51c5 d93f 686b 044f 9ebd d7bf
000002b0: 9c6e 3305 a17e dd3f 5cae e7cf c2ec d73f
000002c0: 6c90 bc8c 8081 da3f bab2 cc5a 3677 d8bf
000002d0: 6639 db3f 00d4 d43f 4eb2 5aa7 7a16 df3f
000002e0: 50f7 886c 1ae1 b63f 8086 307e 0da8 8cbf
000002f0: beab f179 bb36 d63f ccb7 5ecc 1d2b c83f
00000300: 1aa6 b5dd 9847 db3f 5ac9 0eb9 a08c d9bf
00000310: 48e4 a9af a7b2 b0bf 90f9 086b bc65 df3f
00000320: ed4e e85b 8995 e6bf a080 77e5 efd8 dfbf
00000330: fbeb c8bd ed5b c93f e2d5 4da6 a032 e3bf
00000340: ab13 41b3 f387 cbbf f4ca c382 f16d d0bf
00000350: 0235 c63d f18e c4bf abaa 5349 8883 c33f
00000360: f8b8 4584 0fc6 e1bf b4c6 5e08 4e5b b23f
00000370: 8cfe a5ba 7ded d4bf 9240 2d41 7d00 ddbf
00000380: 4d6d 8a18 2448 d83f 695e f0fa 7d5a d1bf
00000390: 1f5d 8b0d d733 c8bf bff7 d756 2562 d6bf
000003a0: 768a 86bd 62a2 bd3f 770b 21eb 4f85 d4bf
000003b0: ccc3 c019 8a82 83bf 5879 8b0a e968 c03f
000003c0: 2bcf 6858 3b71 c23f 80bf d722 b080 60bf
000003d0: 4c20 a799 0102 d5bf 3a23 ca82 3bd1 d6bf
000003e0: c4fb e4a7 59af cd3f c220 56ca ef6e a73f
000003f0: 98e0 496d e943 bf3f c24a 5d50 280f d5bf
00000400: 0804 9226 97cc d53f 503d 3b7f 9500 d03f
00000410: 1e2b 468d 1b7e cfbf d50d d95f 565b e1bf
00000420: fc9e 4d18 6ffe d83f 3580 5740 b524 b83f
00000430: f07b 0eb6 eb30 b8bf fc88 10a4 081b dc3f
00000440: 6c0c e5cb 9691 dcbf 3ed6 ba18 b341 d0bf
00000450: 7e5f ec1e 1332 d4bf 461a fcda 4a27 e1bf
00000460: 9f42 fe44 ea5c e2bf 6a8c a187 30a0 b23f
00000470: 38d2 5e5d be28 c4bf b81f 4f2c b536 b13f
00000480: 36b1 b1e3 10ce 9a3f b49d c9f0 9a77 d03f
00000490: 9217 ec55 3f1e c2bf 5ae9 43cd 0262 d3bf
000004a0: 4724 d81d 6e88 d83f e8ae 314f 1e75 c2bf
000004b0: 6347 c464 5f6d c5bf aa98 4ee7 0d2d c73f
000004c0: 621b 77ef 21a8 d53f 82f3 2465 5690 e0bf
000004d0: 1e56 a880 c0c0 d43f 2290 cc88 4c95 debf
000004e0: a1bc c532 25d7 d23f 71c6 eb26 8fbc bd3f
000004f0: 8639 7ebd 7ae7 c23f ec86 baf5 11b2 c73f
00000500: 4ea7 5251 dff3 e4bf 85d2 a019 7bf3 cabf
00000510: 5a5b c32f 24f4 dbbf a8a8 34b5 137a ce3f
00000520: 9de1 4358 162f ddbf bd28 8a24 89e9 b23f
00000530: 5c57 c223 9f44 afbf 3844 a5f0 290f d6bf
00000540: d643 da80 74d7 d9bf 37c7 40e9 71ca d2bf
00000550: c26d a311 a020 d3bf 7ed9 195c 487e cebf
00000560: 64e6 f6b2 a701 a7bf b63d c7d6 9fda d1bf
00000570: 93b9 4a06 5b5c e1bf ec46 1810 5dac c5bf
00000580: 7012 7c56 aec7 c13f 4ecd d6a7 195e b53f
00000590: 0ca9 5736 7a43 d7bf d840 70d7 3c15 d93f
000005a0: 3379 7085 e02e d5bf e664 b543 c3e1 dabf
000005b0: 96b9 c550 22ec d93f 7227 7a17 12a7 d0bf
000005c0: e96f 1d0b ecd7 d53f 7186 a2b8 33d8 dbbf
000005d0: c494 fbd1 2742 d93f 987d 2754 79dd d33f
000005e0: 94b6 8459 0745 d63f a535 7c45 dfe0 dcbf
000005f0: 4a0b f220 af36 c23f f624 8f25 f50a db3f
00000600: 285b 4b4e f6da 973f c33b d81f 3b21 b4bf
00000610: b49f 098b 711f d23f 4954 550b cd3c bf3f
00000620: 2f23 06f3 efdd d63f 7c51 4cef 37c7 ddbf
00000630: faf7 33ad a52c c1bf db7b e7cb 01cd da3f
00000640: 445a d200 3959 ddbf 375d d571 9151 dbbf
00000650: 6699 8652 5535 d13f d38b c38e 00e7 e0bf
00000660: 70eb 1755 7359 c2bf 164f 431e 26cd c7bf
00000670: 8e19 3abf e1c0 b6bf 4eb4 611e ccd1 cc3f
00000680: 874e e994 c004 dfbf 2caa 73eb 633c c23f
00000690: 23db 0347 1f66 d0bf 6f36 5f6c 97b4 dbbf
000006a0: 7077 58ed 0994 d93f 2254 c43b 0c0a d0bf
000006b0: 9248 338f f392 c5bf 9ced 0982 3f16 d5bf
000006c0: c859 1bdd 1472 c13f 0d01 9741 5230 d3bf
000006d0: 9680 0080 30fa 853f 9e8d 27b4 b400 c33f
000006e0: fd15 ad3f f87f cb3f 41aa 8548 47ae 923f
000006f0: 2916 d9c4 1bb6 d3bf f318 9ec3 c980 d5bf
00000700: 2988 1e93 1e28 d03f ed38 6338 0fe7 b03f
00000710: d904 fd34 d842 c23f 5840 d3a6 2aba d3bf
00000720: 2b0e 60fb 7c18 d73f 7347 0954 7b4c d13f
00000730: e302 1d2f 9b4f c6bf b208 4380 1db3 e0bf
00000740: 43a9 79d7 e04e da3f 1f28 34ad eb78 bd3f
00000750: 06d4 3149 b5dc b2bf 4393 3c63 7a6b dd3f
00000760: 72e2 ad30 893c dbbf 1f19 f142 13d0 cdbf
00000770: 3755 c05f a1e1 d2bf 2315 66fb 117f e0bf
00000780: 90f8 732d 4a11 e0bf 84b5 5184 f7e1 b73f
00000790: abbd 06df da87 c1bf a2c7 2b99 eb8a b63f
000007a0: 6f28 924b 750f a83f fba7 f5af 0cc8 d13f
000007b0: 3a87 fb3e 48e8 bebf ac9f 0156 5908 d2bf
000007c0: 8e2e 04dd dfd8 d93f b634 b3a1 75a8 bfbf
000007d0: 2201 00fb 44bd b8bf f0ac ea90 d9c4 c93f
000007e0: 8525 45c4 07f4 d63f bddc 1d0b 3bd0 dfbf
000007f0: 6560 d43f 3211 d63f ff85 feb3 6649 ddbf
