assets/improved_agent/green_weights.npy (npy, 800208 bytes, 1 tensors)

array f8 [10001, 10]
0	0xbfd2e02a6b4e0c42	-0.2949319885157743
1	0xbfd1632b95e6bc90	-0.27167787207412974
2	0x3fd24dfc06ddf972	0.2860097949086572
3	0x3fd037d4cf8ee596	0.2534076716361481
4	0x3fa636375e457180	0.04338238740703826
5	0x3fde94eb98539818	0.47783937335623383
6	0xbfcf7a479dc99e00	-0.24591918186636974
7	0x3fd9efa6726170b6	0.40525208635314003
8	0xbfc2cc4a898584c4	-0.14685947146339207
9	0x3fb6890eb76c85c8	0.08802883127329786
10	0xbff5c982f8ac53b0	-1.3616971696658133
11	0xbfeae65a73521aae	-0.8406193020208172
12	0xbfd37241654fe006	-0.30384859937430553
13	0xbfd7f146679c6eb2	-0.37410125845211006
14	0xbfe1c145ac15dc2d	-0.5548427926104346
15	0xbfb41bf9d3003460	-0.07855187798868846
16	0xbfe9cecc23eddd5d	-0.8064938260785471
17	0xbfb36a2012dcfb60	-0.0758380933811913
18	0xbfe54c98c36c7660	-0.6656001870030188
19	0xbfdd70918771f6aa	-0.4599956343371142
20	0x3fdab391c90f056c	0.41721005091320396
21	0xbfd214fbe7f97048	-0.28253076223132156
22	0x3fcfa6575f8b1ec8	0.24726383366782145
23	0x3fc6a84d5af20170	0.17701117459001692
24	0xbf85ed459573d340	-0.010706466315676288
25	0x3fde3e6ea0556252	0.4725605550534385
26	0xbfd0582b32c64b50	-0.25538139303642016
27	0x3fddf89926c8dae8	0.468298232913567
28	0xbfbf18416d634c00	-0.12146386070826054
29	0x3fb7536e368de300	0.09111679870501277
30	0xbff4707b256bd401	-1.277461191345765
31	0xbff27334da7db4d8	-1.1531265768820074
32	0xbfe2753d967db178	-0.5768115939404614
33	0xbfe47e4ee74439e5	-0.6404184834407799
34	0xbfecd6f46873bd98	-0.9012395896988208
35	0xbfd4cbaeb96d98b6	-0.3249317942448998
36	0xbff12a3bebb1eff4	-1.0728110510672169
37	0xbfd9bf3e5b348832	-0.40229758173711894
38	0xbfeeaebdfccc607e	-0.9588308274715158
39	0xbfe8bb0cc9cd3643	-0.772833246368187
40	0xbfdc08f74aceebf2	-0.4380472403096852
41	0xbfef0048bfd5b90e	-0.9687846895956527
42	0xbfd8b25b7a51e2c4	-0.38588606782245116
43	0xbfdcc47e1bdef39e	-0.4494929573227696
44	0xbfe70bcae56594af	-0.7201895218282938
45	0xbfc1fed99e446ee2	-0.14058990695854506
46	0xbfec6e56e23e2f46	-0.8884691637808622
47	0xbfcd29923aecaa8f	-0.22783115269824747
48	0xbfe8fe8bebd5bf4f	-0.7810725790168166
49	0xbfe30adab8d69514	-0.5950749979134877
50	0xbfd2ffac5d2e4b2e	-0.2968550596207703
51	0xbfee6a99bc818a83	-0.9505127603300284
52	0xbfd67fe8e22cd6c9	-0.3515569885961268
53	0xbfd96fbfda5c7619	-0.397445643657052
54	0xbfe688409ca73d3c	-0.7041323718675936
55	0xbfbcc310e4d529f4	-0.11235147082076208
56	0xbfea602dbf44d17c	-0.8242405639380617
57	0xbfca8a4343449400	-0.20734444412769903
58	0xbfe8295c5b751fee	-0.7550489221839578
59	0xbfe05054a94dbbe0	-0.5098059946739077
60	0x3ffd38f6ef7fcb58	1.8264073710858693
61	0x3fe9cde357c5fa2f	0.8063828195880144
62	0x3ff549516c764410	1.330399917296976
63	0x3ff24990e1299a3a	1.142960433522275
64	0x3fcf5f22eaf51c80	0.24509083244831587
65	0x3ff22f9f31ee11ef	1.1366264295949084
66	0x3fdbb75176732bf4	0.4330638558137132
67	0x3fd6f78b3269d626	0.35885887072740486
68	0x3fa26ab6d5ea3b40	0.03597041474596674
69	0xbf84eb83e127a880	-0.010214834507639603
70	0xbfe1a5dbbbcffd90	-0.5514963787281193
71	0x3fb69e0c9381a690	0.08834913827163349
72	0x3fe09c9749c0d107	0.5191151085369093
73	0x3fd53a2c664efab6	0.33167562476220824
74	0xbfdd13215e0e9bc8	-0.45429262337932785
75	0x3fd56b2e04f209e2	0.3346667335792103
76	0xbfd834c5a7e4423e	-0.3782209529463535
77	0xbfd663effcb0843a	-0.3498496978446074
78	0xbfe882fbf4047b39	-0.7659892812697314
79	0xbfea49b99eb055bb	-0.8214996432677063
80	0xbfcff17be377866e	-0.24955700499326688
81	0x3fc80a35388d648a	0.18781152020782016
82	0x3fe3cb630573f558	0.6185774904730961
83	0x3fdb97c3ddb54357	0.4311380066983949
84	0xbfd6b589e6a85327	-0.3548302414431412
85	0x3fdbef923c23e687	0.43649726746625855
86	0xbfd1c3c7d0982f9b	-0.277574495034736
87	0xbfcfe5e44ac8e32e	-0.24920323993298993
88	0xbfe54a7d085e71e8	-0.665342823358114
89	0xbfe71aede2fd316a	-0.7220372613315196
90	0xbfd10988e6d7ae1a	-0.26620695632183955
91	0x3fc749a5f4f22826	0.1819350667977357
92	0x3fe39b3f348d263f	0.6127010370630116
93	0x3fdb366a5f15b74c	0.4251962593615317
94	0xbfd719071eebbae3	-0.3609025766335618
95	0x3fdb8c1503e07ecb	0.43042493227583795
96	0xbfd22856e5ad8530	-0.28371212415193536
97	0xbfd0566f5da7d953	-0.25527557512341054
98	0xbfe57c3ba48025c6	-0.6714151585485346
99	0xbfe74d356d87dc34	-0.7281748904487189
100	0xbfec876f120c3197	-0.8915324547283942
101	0x3fc6f94aef7226ba	0.17948280994123939
102	0x3fe0c80c030d1977	0.5244197902291451
103	0x3fd53fa8f6959c50	0.3320104988146726
104	0xbfd80a182f6bbf26	-0.37561611777253956
105	0x3fd1f93cdc20537a	0.2808372640295641
106	0xbfd4d35c946d9142	-0.3254004907123723
107	0xbfd4933c27e7ec7f	-0.3214865102488104
108	0xbfeb72fd0d0040c2	-0.8577866796422529
109	0xbfe83e467e07e077	-0.7576019727266744
110	0xbfe27bb02aed70ce	-0.5775986517360481
111	0x3fd3355c578c7256	0.3001318793265332
112	0x3fe4214ba56caf0f	0.6290643912265937
113	0x3fdc938587127136	0.4465040034354105
114	0xbfccda92d8bec616	-0.22542033751737794
115	0x3fd88364cdf0143d	0.38301963912119047
116	0xbfce25d28295c946	-0.23552924514985757
117	0xbfca05b93607efe8	-0.20329966676933897
118	0xbfe78c8bc85ab6aa	-0.7359064973040479
119	0xbfe5177403538fe8	-0.6591129364937816
120	0xbfe13e050479d4df	-0.5388207518978126
121	0x3fd40e1f6ec64020	0.31336198633016643
122	0x3fe48dad310995f4	0.642294498230227
123	0x3fdd6c489e4c3f00	0.4597341104390438
124	0xbfcb290caa4b2a82	-0.2121902305137447
125	0x3fd95c27e529e207	0.3962497461248237
126	0xbfcc744c54222db2	-0.22229913814622432
127	0xbfc8543307945454	-0.19006955976570572
128	0xbfe71eeb52ad4ba5	-0.7225243201049706
129	0xbfe4ab1277b6a903	-0.6458828294901483
130	0xbfc153106b5c60d4	-0.13534741632680058
131	0x3fe288a3e4e36c2c	0.5791797132945979
132	0x3fedb7c22b33cf92	0.9286814540669062
133	0x3fe71dcc0e64e49c	0.7223873406538988
134	0x3f934508c3968ee8	0.01881803220534453
135	0x3fe4a113c1acd69e	0.6446627409665842
136	0xbfa3d821a2ff5594	-0.03875832667078352
137	0x3f9e94659ca23038	0.029862964329865543
138	0xbfe15946c6163c92	-0.5421480053791063
139	0xbfdece1824ce79e4	-0.48132899851216693
140	0xbfedd9d7d1c59bf9	-0.9328421685321465
141	0x3fd64188a4e00d60	0.3477498636350074
142	0x3fe64fe298c06a16	0.6972516044073156
143	0x3fdf6bd8f7e2fe40	0.4909574909943082
144	0xbfcb36dd315ac414	-0.21261181745424607
145	0x3fda3f2af9a0328c	0.41010546090618827
146	0xbfd17e00be196562	-0.2733156067311794
147	0xbfc9ccf196394fea	-0.20156688532972505
148	0xbfe8dac50af2f9ea	-0.7767052854395022
149	0xbfe6b54cf2714a92	-0.7096314177709522
150	0xbfeb7ecdbf6460cd	-0.8592289674880021
151	0x3fd79f887752b63e	0.36911212589879827
152	0x3fe6fee281f9be85	0.7186138666711065
153	0x3fe06749cca4aea5	0.51260843247788
154	0xbfc87add8c757258	-0.19124955519045517
155	0x3fdb9d2acc12db6a	0.43146772316997917
156	0xbfd02000eba6bc84	-0.2519533444673885
157	0xbfc710f1f153fe2e	-0.18020462306593416
158	0xbfe82bc521b9a57b	-0.7553430231757113
159	0xbfe6064d0937f623	-0.6882691555071613
160	0xbfe743aae75a5b93	-0.7270102041828629
161	0x3fda829d3aed2036	0.414222056908787
162	0x3fe8706ce3c6f381	0.7637237976810952
163	0x3fe1dd1390ac27ea	0.5582368684420065
164	0xbfc2c5b18e29af8f	-0.14665812913460427
165	0x3fde803f8fad4562	0.4765776541799679
166	0xbfca79d85018a519	-0.2068434134573998
167	0xbfc14ac86a1f2a3f	-0.13509469205594546
168	0xbfe6ba3abfec707f	-0.7102330921657226
169	0xbfe4990209a50571	-0.6436777294513104
170	0xbff4489bd6e303a4	-1.2677267450346585
171	0x3fd09a7acf58234c	0.25942869423356707
172	0x3fe3483eeae61bb0	0.6025690639370307
173	0x3fdac5359980f3ee	0.41828670492742404
174	0xbfd0b6e4363968c9	-0.26116280837380806
175	0x3fd771afcf512b87	0.36631388898666056
176	0xbfd3e342623bb9af	-0.3107458075818625
177	0xbfc9fa3e432e0efe	-0.20294931679028844
178	0xbfe9826e7f7335c4	-0.7971718301065995
179	0xbfe7b81063a65fa6	-0.7412187525069285
180	0xbfecc7b870409628	-0.8993799393107951
181	0x3fd88dcfa17ff31e	0.38365546008553675
182	0x3fe73613ff67ec10	0.7253513325116518
183	0x3fe1506fe1424a57	0.5410689735020452
184	0xbfc1871ec82331ee	-0.13693604252183839
185	0x3fdf4d59f854cc47	0.4890961575612817
186	0xbfc83e85c4b89000	-0.1894080362845898
187	0xbfb427293dbcdeb5	-0.07872255093831877
188	0xbfe5a06ebf837cec	-0.6758340588093268
189	0xbfe3d610a3b6a6ce	-0.6198809812096557
190	0xbfe47221eb69bebb	-0.6389321897422272
191	0x3fde809b6fbeef42	0.47659955895118256
192	0x3fea594face5fae8	0.8234022499962892
193	0x3fe49d81551ee9f5	0.6442267096056741
194	0x3f4f10e7c1e19000	0.0009480601909328534
195	0x3fe39b15898148d9	0.6126811681408767
196	0xbfb11cb6c2848b92	-0.06684438942879314
197	0x3f8d202fd9f88ed0	0.014221547927327022
198	0xbfe2b7c4c1569f29	-0.5849326873912776
199	0xbfe0d44cc81dd895	-0.5259155186202117
200	0xbfecbf0c99b4558f	-0.8983214380302104
201	0x3fd908a97b69a6fe	0.3911536889269057
202	0x3fe7950172cd1df7	0.7369391672336282
203	0x3fe1d9331b060d04	0.5577636268430131
204	0xbfb5e4500143246b	-0.0855150225717282
205	0x3fe0d6c74f686be8	0.5262180853782157
206	0xbfc39f9449a5b98e	-0.15330747219145419
207	0xbfb23bc1d6160f34	-0.07122432209694979
208	0xbfe573bdbb81434b	-0.6703785574155544
209	0xbfe39045c2487cb7	-0.6113613886444885
210	0xbfe82621a3e4f246	-0.7546547127781842
211	0x3fdd5c5971d27ce8	0.45876155963374154
212	0x3fe9f19e4b6edf87	0.8107444260885907
213	0x3fe45181269da0ba	0.6349492792333173
214	0xbf909b2d6f2210ac	-0.016216955097221472
215	0x3fe2e0508f28b706	0.5898821636271527
216	0xbfb512df21f98a44	-0.08231920794927655
217	0xbf81ca82ffc48a88	-0.008687041693126632
218	0xbfe3454837ce8aa5	-0.6022072877861616
219	0xbfe12f0b61286d76	-0.5369927308669691
220	0xbfe383725b841448	-0.6097957408352466
221	0x3fe0ae13f13b2fc8	0.5212497436091263
222	0x3febc7a37829d20f	0.8681199404659895
223	0x3fe63a23add492b9	0.694597091209821
224	0x3faf40c98fedd576	0.06104116327234525
225	0x3fe5672c977da47c	0.6688445051960481
226	0xbf79624682a193c0	-0.006197238379262282
227	0x3fb4c0eb5116c61c	0.08106871347151706
228	0xbfe037775f76a10d	-0.5067707886237557
229	0xbfdc8cea7b910599	-0.4461008269027729
230	0xbff000bacb6a0946	-1.0001781411998123
231	0x3fd9e9e3b30f79b2	0.404900479186746
232	0x3fe80e8160765f20	0.7517706760436091
233	0x3fe2810196211fca	0.5782478267874407
234	0xbfab88af0eb7c804	-0.05377718977605642
235	0x3fe1ae0a7fca318d	0.5524952407736677
236	0xbfbf5f3525c5b0b4	-0.12254650280164264
237	0xbfa2104ad909a2b8	-0.0352805509508633
238	0xbfe3e40ee960fae5	-0.6215891416721574
239	0xbfe1e68239e9c38d	-0.5593882685771959
240	0xbfed50d8878202f3	-0.9161188742292253
241	0x3fdbeaf95a156733	0.4362166766855921
242	0x3fe90f0c33f955e0	0.7830868735424552
243	0x3fe3818c69a4168a	0.6095640242862868
244	0xbf970003ad10b7f8	-0.022460992277210295
245	0x3fe2ae95534d284e	0.5838114382725139
246	0xbfb75ade89adfab0	-0.09123030530279652
247	0xbf703ced06d1b580	-0.0039643534520171775
248	0xbfe2e38415de0424	-0.5902729441733112
249	0xbfe0e5f76666cccc	-0.5280720710783497
250	0xbff310c496a5a194	-1.191593731369811
251	0x3fd3e5d41e9b8b27	0.31090262402556096
252	0x3fe59a12393bfb71	0.6750575178010491
253	0x3fe1045d8c25fe63	0.5317828881524743
254	0xbfc1cf19a696a7ea	-0.13913269647792897
255	0x3fdfc381343e9a44	0.4963076601219749
