assets/improved_agent/green_weights.npy (npy, 800928 bytes, 1 tensors)

array f8 [1001, 100]
-0.16736944088528372 0.24634537902541598 0.0843545922385206 0.16056419287459944 -0.4921213788571759 -0.47829665414681677 -0.43247019022564637 -0.01615040431380188
0.054673937020361385 0.1533031151917612 -0.09740637823401055 -0.49303183127698413 0.24252071198676506 -0.3658319306660489 -0.4482943183761481 -0.0031096974722183424
-0.31003232779050083 -0.395732869563011 -0.2645243602980053 0.40861441460463976 0.11623660373849187 0.2292114656432228 -0.3694335206867153 0.36278961370218665
0.08990079241418614 -0.41155875897206995 0.41937911637109626 -0.3351334722551006 0.4919922374085689 -0.4404967468835784 -0.21674942838335842 0.19573388717600992
-0.338232457631497 0.4083258101224948 -0.22472269949370338 -0.02842842900261977 -0.3528549516265236 0.3375254637591941 -0.0035886627580128394 -0.11006109949250498
0.251904644580494 -0.4145417000787682 -0.2724410214271926 -0.02663093165851549 0.29543568918229224 0.30039667135158254 -0.0821534773017697 0.3994895945392186
0.29357292364875487 0.0455299099512394 -0.4173393211742914 0.2907631797298553 0.3611024655949714 0.24366583682971898 0.194335687699127 0.15921581903692994
0.4366527435374048 0.3646188146860454 -0.3458922923649369 0.4048256412942455 0.05770880057213401 -0.47139344673315 0.3868864292241807 -0.17585875875810553
-0.4903455823393891 0.0031846133939619214 -0.46588076496904096 -0.34936284102681037 0.31886080559154484 -0.07953227093332249 -0.3217930113749049 0.21130458807636887
-0.01016113793444684 -0.10224377023442222 -0.3575513055832764 0.238439041688158 -0.16474922592390973 -0.3863055326262298 0.34426892587058255 -0.175130774863824
0.28068803678315646 0.3626988034562205 0.04647520241603742 -0.33589533049469156 0.19460504075193996 -0.12619415225896757 -0.39055677044485715 0.14983109309042464
0.36244455922004826 0.4105009775404779 0.07849054701316083 -0.3251394113323115 0.16516269002372663 -0.44734681731396475 -0.289067029345214 -0.40144610489471944
-0.3621376422848762 -0.09346991163578611 -0.10088283771526019 0.09319429631278697 -0.3055437854148036 0.2035384252299961 0.041547638443100714 0.11829909925380513
-0.5343864724779702 -0.5205617477676111 -0.4747352838464407 -0.05787363775997063 0.01240884339956707 0.11049616139634133 -0.14021333202943043 -0.5062935934332122
0.22925894983053693 -0.37892582241523615 -0.4613882101253353 -0.016203589221405603 -0.32312621953968806 -0.4086588909051574 -0.27761825204719254 0.39535265244841167
0.073429649943072 0.2159497034869947 -0.3826952828429434 0.3496957219529994 0.07680690066499887 -0.4246526507212572 0.406285224621909 -0.34805949359724697
0.47889834565938166 -0.4537585090398065 -0.25901452200415276 0.18263999542682266 -0.35132634938068424 0.3953976638384871 -0.23765084577771106 -0.041356575286627444
-0.36578309791053126 0.32476306294036605 -0.016516809042020512 -0.12315499124169224 0.2096395509596997 -0.42763559182795546 -0.28553491317637986 -0.03955907794252316
0.28250754289828456 0.28746852506757486 -0.09508162358577738 0.38672719372039055 0.2806447773647472 0.032436018202052136 -0.45960441479508574 0.2776692879806681
0.34800857384578415 0.2307376905457113 0.18140754141511933 0.14628767275292226 0.4237245972533971 0.35185641386721733 -0.3588204386489446 0.39173174954505824
0.015443706951339696 -0.4844873384823372 0.37379253747499347 -0.1887869050421132 -0.5032737286233967 -0.009743532890045753 -0.47880891125304864 -0.36212524184563843
0.30593265930753716 -0.09262616268250976 -0.36351624482107364 0.19837856673422247 -0.023087159276593237 -0.1150061710532503 -0.3703137064021045 0.2256766408693299
-0.17751162674273782 -0.39890431292173956 0.3315065250517545 -0.1880567962059704 0.23842294316236215 0.3496049117070333 0.033381310666850156 -0.34882347677869924
0.18167689446793228 -0.13912229854297525 -0.40348491672886483 0.13706869227159654 0.3495164129360406 0.39740708579129064 0.03568359321774094 -0.3384011734885396
0.1519009278674985 -0.460440709063152 -0.30216092109440124 -0.41453999664390667 -0.37523153403406345 -0.1063959329779325 -0.11397672946444745 0.07993253415655885
0.32754280704348365 0.4691865248105323 0.3245745856597468 0.408774124028784 -0.23398067762521435 -0.17795018008430274 -0.13212371616313234 0.3418398578705558
0.4195704165884263 0.4878654243518694 0.12543476755110577 -0.39482556733471275 0.34801927670183547 -0.2570402237841666 -0.33533558248123774 0.12755891172806103
-0.17936371859022143 -0.2409359731307796 -0.10677006251304375 0.5536997549434763 0.35645659715971806 0.3347100303582932 -0.25616558879314866 0.4795551447935782
0.21110596189328973 -0.2714851263451899 0.5594527489979764 -0.16936404849183515 0.6609235195555776 -0.2850522503067469 0.03146050277082607 0.3045255940578922
-0.22146692654010547 0.5286744399117127 -0.09981759872762305 0.1158416734151258 -0.208584849208778 0.5081610197590781 0.17029850100933844 0.04999090587907945
0.5100453458124555 -0.3015829641838579 -0.151235851948089 0.09827416910756484 0.42505303771076874 0.45004107287024275 0.06749092421689051 0.5763951661568364
0.4738469356229902 0.21150143317310663 -0.11699284711177738 0.4214317889301347 0.5011760982218514 0.38793593924746456 0.3439800892177872 0.33170099173447737
00000000: 60de 79a1 5c6c c5bf 58aa 37d1 3e88 cf3f
00000010: 788e ee36 4398 b53f 940b a712 5e8d c43f
00000020: e0a7 f6aa ea7e dfbf fc31 d691 699c debf
00000030: 32e6 e072 97ad dbbf 403c 6149 bb89 90bf
00000040: 305c e4e6 38fe ab3f 00d0 0fbd 6f9f c33f
00000050: 78d7 efd8 9fef b8bf 4c2f ce61 d58d dfbf
00000060: 34fb 4a2f eb0a cf3f 1cc4 8254 ca69 d7bf
00000070: 6c1f 1aa7 dab0 dcbf 003b 321e 8279 69bf
00000080: 6c07 24d5 91d7 d3bf 666c 2ef5 af53 d9bf
00000090: 8e6a 1e95 f7ed d0bf d4ab d912 bd26 da3f
000000a0: c0a9 a79b aec1 bd3f bc26 6722 cd56 cd3f
000000b0: 3651 597e cca4 d7bf b87a 8bed f137 d73f
000000c0: 90ac 4d03 bd03 b73f 78b6 8a8c fa56 dabf
000000d0: 741c 5c81 1bd7 da3f 6e5b c8a9 d372 d5bf
000000e0: 1e90 6302 cd7c df3f beff 7644 1931 dcbf
000000f0: e8a6 2afd 71be cbbf c8e8 11da ce0d c93f
00000100: 6445 febf 99a5 d5bf 3eaf 2594 0222 da3f
00000110: f444 7fa2 b6c3 ccbf c023 5f93 571c 9dbf
00000120: d8ec 5def 2c95 d6bf 226e 1a67 049a d53f
00000130: 0042 d3a5 f865 6dbf 08d2 e1d6 f62c bcbf
00000140: 28c2 8ba8 341f d03f c2a8 2ae9 d987 dabf
00000150: 9897 4777 ac6f d1bf e02e 2492 2345 9bbf
00000160: 94fc c617 6be8 d23f 5211 d2f5 b239 d33f
00000170: 0887 43a2 0208 b5bf fed8 e8cd 3c91 d93f
00000180: 1e00 8416 e6c9 d23f c0f6 7544 b24f a73f
00000190: aad1 f1fb afb5 dabf 5486 f42a dd9b d23f
000001a0: 4210 0f84 4d1c d73f d405 2b30 7130 cf3f
000001b0: 8c84 8ee7 fddf c83f f07d e217 2f61 c43f
000001c0: c4ea 4c59 1ef2 db3f 684d 2527 ea55 d73f
000001d0: 0256 e96c 1923 d6bf 8839 7cce a9e8 d93f
000001e0: a022 4c06 028c ad3f 5020 516b 4f2b debf
000001f0: 482e 324c bfc2 d83f 5065 ca30 8a82 c6bf
00000200: 26b0 f86f d261 dfbf 003c 144c 9e16 6a3f
00000210: da28 588e fdd0 ddbf 8475 29f6 f55b d6bf
00000220: 467b ff26 3768 d43f 889e a216 3a5c b4bf
00000230: cef0 fbb6 4198 d4bf 5831 a45b 070c cb3f
00000240: 80e1 f2d8 5ccf 84bf a867 60d1 a52c babf
00000250: 58d3 07df 1ee2 d6bf b4f2 11a7 2b85 ce3f
00000260: 8c37 b1ac 8016 c5bf 662f 39d7 3ab9 d8bf
00000270: 322a 6988 8008 d63f 0019 486b af6a c6bf
00000280: ae2c 97f4 caf6 d13f 9e23 c90a 7536 d73f
00000290: 505a e704 99cb a73f daa4 d620 4f7f d5bf
000002a0: 484a d566 d1e8 c83f f008 7346 2127 c0bf
000002b0: ccb0 12d3 e1fe d8bf b4a7 5f4e aa2d c33f
000002c0: c4a5 1daa 4a32 d73f e2ca 60e4 a545 da3f
000002d0: 1878 77dc f417 b43f b207 9488 15cf d4bf
000002e0: e0ec 1510 0d24 c53f 9452 958b 54a1 dcbf
000002f0: a8ee 58ff 1280 d2bf 2e48 e800 4bb1 d9bf
00000300: dae6 905c 432d d7bf f8bd a2e5 a4ed b7bf
00000310: c0f7 b628 75d3 b9bf b04f d6d6 94db b73f
00000320: 6191 7685 078e d3bf 60cc eb0f 8c0d ca3f
00000330: 0fa5 ad68 bb45 a53f 62fc 708a d948 be3f
00000340: 49f7 d6a8 b119 e1bf 57bc 461c 71a8 e0bf
00000350: e42c 9819 1062 debf 5991 f50a 9da1 adbf
00000360: 8c9a a8c4 ce69 893f 10e4 87f7 7949 bc3f
00000370: b4c9 c3ad 82f2 c1bf f809 3f9f 8e33 e0bf
00000380: eb31 eb75 5b58 cd3f b188 b817 5240 d8bf
00000390: 01e4 4f6a 6287 ddbf b790 2277 ac97 90bf
000003a0: 01cc 5998 19ae d4bf ec10 ea9e 7727 dabf
000003b0: 232f 5458 7fc4 d1bf 30c7 2936 754d d93f
000003c0: d0ed 0f19 49cc b23f 735d 0769 3da4 cb3f
000003d0: da35 095b 147e d8bf 23b6 552a 6a61 d63f
000003e0: 3a9a 76f6 9da9 b33f 0d7b c04f 822d dbbf
000003f0: df57 26be 9300 da3f f4ff 8353 9b46 d6bf
00000400: 89cb 2d3f 45a6 de3f 62e4 2621 610a ddbf
00000410: 269a 4ca5 b193 d0bf 9d5f a653 bf60 c73f
00000420: f909 3483 217c d6bf 7d78 c600 324e d93f
00000430: 76b2 3dc9 576b cebf e747 a964 b02c a5bf
00000440: 9923 bd82 fd68 d7bf 36c5 9103 ebc8 d43f
00000450: 4ed4 ad4a c8e9 90bf 5ee4 b8e3 1587 bfbf
00000460: edf6 a803 78d5 ca3f 576d 60ac 615e dbbf
00000470: 2d5c 7d3a 3446 d2bf 77cd 0b64 1641 a4bf
00000480: d3c5 6784 9a14 d23f 91da 7262 e265 d23f
00000490: 0c62 c0ef 4457 b8bf 1230 606a 23c0 d83f
000004a0: 5dc9 2483 15f6 d13f 14d2 c72a 749b a03f
000004b0: 5c18 a9a2 286a ddbf bfc1 be67 55c5 d13f
000004c0: ad4b d9c0 c545 d63f 5298 6c09 d088 cd3f
000004d0: 0a17 d0c0 5c38 c73f 6e10 24f1 8db9 c23f
000004e0: 03b4 edc5 4d1e db3f 7ca4 9cc3 d084 d63f
000004f0: c38c 4800 eaf6 d6bf f374 460b 2212 d93f
00000500: 4cb4 4742 f3a0 8f3f e5e4 862e d701 dfbf
00000510: b369 fc88 37ec d73f d2d2 8857 2b2a c8bf
00000520: 73f3 ab81 d11a e0bf 1dc9 e1d8 6af4 83bf
00000530: 9b5f b721 cea4 debf 701e b259 0f2d d7bf
00000540: 8544 a093 6694 d33f deb0 7923 59b6 b7bf
00000550: 358f c4a3 d943 d7bf 4be8 2c08 7864 c93f
00000560: 26b9 3308 29a4 97bf 590b 835f 0b71 bdbf
00000570: 447c 9042 38b3 d7bf dba0 00e0 f8e2 cc3f
00000580: 6589 c273 b3b8 c6bf b8dc 8ef4 a587 d9bf
00000590: 4681 e024 6737 d53f 0d62 bfbe 3e12 c8bf
000005a0: f9cb bf9b a484 ce3f 095f 9347 ed5f d63f
000005b0: a435 39eb 5a17 a13f 9bdb 35b4 1f53 d6bf
000005c0: c6dc 1640 3041 c73f 7276 316d c2ce c1bf
000005d0: 8de7 7166 b2d2 d9bf db55 4e87 778b c13f
000005e0: 036f be16 7a5e d63f 4d06 2b21 1e6f d93f
000005f0: 4f78 bfb3 1e45 a23f 56ec 4365 5da8 d5bf
00000600: 9723 b656 7d71 c33f 2917 cb4e dc77 ddbf
00000610: 3db3 8ec2 9a56 d3bf c30c 1ec4 d287 dabf
00000620: 6fab c61f cb03 d8bf 1150 918c c33c bbbf
00000630: 160a 8e35 942d bdbf 1ebd 1664 7576 b43f
00000640: ddac 121b 76f6 d43f 8d3f f2ea 2607 de3f
00000650: 035e a17b d4c5 d43f 32e6 89f1 5a29 da3f
00000660: 5cea 252f 14f3 cdbf 14c3 e34d 12c7 c6bf
00000670: 802b f90f 6ee9 c0bf 2a7e 8148 b4e0 d53f
00000680: e272 67e0 3dda da3f 3030 9ce6 2f39 df3f
00000690: 06e9 3418 3f0e c03f 74f1 d474 d244 d9bf
000006a0: 1ff7 f3a4 f245 d63f 8635 bad6 5873 d0bf
000006b0: 2a4a fc5f 2376 d5bf 4dba 17b5 d953 c03f
000006c0: 9e8b b7ec 63f5 c6bf b768 836e fdd6 cebf
000006d0: 4676 af66 4855 bbbf 5e22 698c e8b7 e13f
000006e0: d5a4 cf54 2fd0 d63f e30c 829e e36b d53f
000006f0: c089 8e5a 0465 d0bf ec15 e10f 08b1 de3f
00000700: 2e41 2929 8505 cb3f 7531 c026 0360 d1bf
00000710: bc50 9373 09e7 e13f dbfe b19c b8ad c5bf
00000720: e0bf b414 4926 e53f ebfe 2dcb 4b3e d2bf
00000730: 9867 084d 971b a03f f982 d1ea 587d d33f
00000740: 6054 513b 0759 ccbf 8edc b4a8 e6ea e03f
00000750: 4eb3 196a a58d b9bf f4f5 d4c6 cca7 bd3f
00000760: 3e7a e588 e8b2 cabf b7f3 1ee6 da42 e03f
00000770: 954b 325e 57cc c53f f834 b273 6898 a93f
00000780: 6dba f79d 4a52 e03f 80d3 0ca2 224d d3bf
00000790: 49c4 0c47 b25b c3bf e2ca 5bf6 7e28 b93f
000007a0: 0e20 02a8 1134 db3f 8e67 7512 79cd dc3f
000007b0: e8d1 49d0 1547 b13f 47ea 8646 d471 e23f
000007c0: 38e0 f318 8253 de3f 478f 449d 7a12 cb3f
000007d0: e004 3644 3ef3 bdbf f1c7 bc09 bdf8 da3f
000007e0: a2ca ec74 a209 e03f a3b2 0043 f1d3 d83f
000007f0: 8298 6a10 c503 d63f e138 e3cb 963a d53f
