assets/improved_agent/red_weights.npy (npy, 80208 bytes, 1 tensors)

array f8 [1001, 10]
0.32737749334735267 -0.24231099694387048 0.19459823336332271 0.01641096884780746 0.2929243081298235 0.06786824202737196 -0.16057760636140206 -0.4728623237233124
-0.06749973372319562 -0.02839277535912521 -1.1729321926714298 -0.8424348713513835 -0.2996214279134527 -0.3836716140905345 -0.2424803249200166 -0.46753639102246813
-0.5900780262805045 -0.8788284740578065 -0.42051377749232094 -0.31080401037442545 0.9046352394914501 -0.12547042417360543 0.40919569600094163 0.33329283308724356
0.46633679899437774 0.24942805615530994 0.11873909763388979 -0.15371670361664458 0.2883033464220734 0.389865790276585 -2.040799002558723 -1.0148760580475793
-0.4686592153551883 -0.5445620782688864 -0.39996738984390845 -0.6168761326829763 -0.7475650912043964 -1.0315716149727745 -0.5895515649340566 -0.4879891210795449
-0.4920390239860333 -0.5107698689435274 0.023299836662019013 -0.052603026251679064 0.08591809362987651 -0.12491708066576895 -0.2556060391871891 -0.5456861314989896
-0.1097396500036939 -0.008177206149182215 -0.05165279712900639 -0.358793445557573 0.17354925523676937 0.10110040194547934 0.23616751220462687 0.02878634753138945
-0.1019026109900307 -0.39198270330183116 0.0439637781934645 0.1455262220479762 -0.608019092045572 -0.5442488771964282 -0.011906176402085827 -0.08435502969337585
0.05071208056577167 -0.1544872554999498 -0.28517621402136994 -0.5730744777256545 -0.13930982483787474 -0.037747380983363055 0.5896303885161917 -0.12624572515722443
0.218230390450959 0.2960748053085961 0.736425116495252 0.39971917079921926 -0.06912964105728708 -0.08931802087129503 0.49004323553575796 0.4413124112413424
-1.0665012110801682 -0.626332521898086 -0.28185640628990255 -0.2105066251561728 0.22334905230657576 -0.10686225966554963 -0.5757110715220559 -0.6088887187838785
-0.02952746237682552 -0.07825828667124107 0.09698080220061045 -0.08793692359560812 0.3158539613170856 0.2731368784036803 0.9898783787033238 0.34940519652299096
-0.2015717574474526 -0.02942904942443192 0.5909962780395897 0.33238242389844547 -1.0796417726007623 -0.493987067056474 -0.09019618214378028 -0.12829905888149395
0.5792140290667662 -0.05203074076218328 -0.6030076947326268 -0.4400933990609895 0.1895603407544154 -0.06905351338672877 -0.3717606914408943 -0.24137068123079558
0.11800413584441621 0.05491722094811899 0.9789586396041035 0.22279367898223607 -0.3670473343460042 0.004067279313829664 0.5948569597714378 0.24185896147564467
-0.9408120202157535 -0.42659130981241644 -0.06498491889887184 -0.1347665553101674 0.7937380110224826 0.035341476562282426 -0.5567311106042906 -0.18115334926779117
0.4074047573514842 0.05217518521735828 -0.7129421236538743 -0.3479538553126307 0.013652535600913923 -0.05612910081038164 0.8714818580847709 0.11397893106206819
-0.4780936561045048 -0.10340950220550298 0.4851486044137724 0.13081263971714405 -0.7683773856818291 -0.3668670623574623 -0.0054780646283410644 -0.07569448740848334
0.8519164714866692 0.09463093764838985 -0.49722425633375983 -0.12275749561918131 0.4655832178156707 0.11124725311904235 -0.7574036351664905 -0.36308004257177684
-0.0016910448426555734 -0.07186443330705142 0.855746525588101 0.09837492311832892 -0.49348027086382074 -0.11888440720200297 0.46937023760135616 0.11503427290472784
-0.21343076833167995 -0.14122444198032472 0.22016455574879654 0.15212439421316468 1.0690692184644974 0.3010314813509054 -0.28442403184495235 0.08163892410180956
0.6698935689051687 0.3219572849948322 -0.894670323737196 -0.37364734911867725 -0.009586823721299098 -0.08029851292518789 0.8393178389944018 0.06860857421255284
-0.514175411315048 -0.1534555107047999 0.43747066176681615 0.08686285018822276 -0.4711166544491145 -0.26734368310127643 0.11000480054827685 0.050920074815041294
0.9937903536759374 0.2413520314908292 -0.3082120584063338 0.04918585264087047 0.6218410825157458 0.25960630746649915 -0.8855864371903088 -0.4071256490453655
-0.02977716539581224 -0.0856111477349992 0.8540083877318483 0.10157006554674011 -0.4463686526533986 -0.08734536990917002 0.4820591165716567 0.12144971321943437
-1.0798247613796215 -0.4772037895371959 -0.08081233292790613 -0.13055256391997738 0.8044966580365334 0.06805443313760384 -0.47836084722575595 -0.12466959691025362
0.4447348895705731 0.08260204838157187 -1.3589454533268164 -0.6293519314221374 -0.2231091562735349 -0.24986297734054308 0.7048888816945932 -0.0019993875863980187
-0.5495092588985704 -0.20566932712238079 0.3670189322048835 0.0037915000670697696 -0.9580310442259435 -0.4957137950551798 -0.08632659316853122 -0.11622484097358549
0.8400992314305739 0.13478317551860564 -0.4127266957935667 -0.06888676401737712 0.5038014953098872 0.13900184980305041 -0.9638027581054992 -0.4974113579609315
-0.08802415607428289 -0.11792240387933715 0.8383790343527455 0.13310824678493066 -0.41440162452724166 -0.07058432692312878 0.5021039324041355 0.13730428689729876
-0.862617502556232 -0.46249252467334123 -0.05350212771041526 -0.08340037551546953 0.8736946725640584 0.1680270800725209 -0.3794827912396514 -0.03566549363553854
0.5370227656917258 0.17301673003233425 -0.9372212649581875 -0.4847273715068652 -0.07573697454393923 -0.10592778612311882 0.8517523895046598 0.14608479701312224
00000000: c2e4 d7ba c0f3 d43f e4e3 aaf7 0b04 cfbf
00000010: 08d2 134c 98e8 c83f a0ef fc79 09ce 903f
00000020: c6be e798 45bf d23f b0cf f127 d05f b13f
00000030: 4466 e597 ce8d c4bf 82bd f955 6043 debf
00000040: f86f d49c a947 b1bf a0c2 70e6 fe12 9dbf
00000050: 9630 ff8b 54c4 f2bf 65da aef9 39f5 eabf
00000060: 266c 845a ff2c d3bf 4008 bb62 138e d8bf
00000070: fc3a ba64 9809 cfbf 5868 48c1 1dec ddbf
00000080: dcd0 1e50 ebe1 e2bf 4ee6 5be4 5c1f ecbf
00000090: 4134 769e b2e9 dabf f985 0181 36e4 d3bf
000000a0: d498 0d9a c5f2 ec3f dc6e 3834 6a0f c0bf
000000b0: 6e3b ff24 4330 da3f 1c75 8676 ab54 d53f
000000c0: 168a 264d 76d8 dd3f 082a f22f 42ed cf3f
000000d0: 7017 187d af65 be3f ecf2 702b fdac c3bf
000000e0: 5373 0de1 8f73 d23f d14b c4a4 8ff3 d83f
000000f0: d497 6d6d 8e53 00c0 8cec 6cad ee3c f0bf
00000100: fcd9 ba38 83fe ddbf 27d0 9973 0d6d e1bf
00000110: 0026 b6d2 1099 d9bf 89cd f103 73bd e3bf
00000120: 1d55 4ba0 0dec e7bf b8a3 dc3c 5181 f0bf
00000130: 0c51 563e 9bdd e2bf 99c9 f5b8 363b dfbf
00000140: a80c 183f 917d dfbf 06a1 5c0d 3a58 e0bf
00000150: 90af dc91 e9db 973f c8da d7aa c8ee aabf
00000160: 7465 466a bafe b53f 74d8 2bd8 90fa bfbf
00000170: 4505 be6e d95b d0bf c267 15c3 4276 e1bf
00000180: 4821 d7cf e517 bcbf 60fa dd07 36bf 80bf
00000190: a0fe d444 3c72 aabf 7817 acc8 78f6 d6bf
000001a0: ad58 beab dc36 c63f c2e1 f747 b7e1 b93f
000001b0: 75f5 a5ae bc3a ce3f c8da df14 2b7a 9d3f
000001c0: ee45 941d 4a16 babf badb d19e 3e16 d9bf
000001d0: bc5b 199b 6b82 a63f ed07 346e 9aa0 c23f
000001e0: 33bd 7574 e474 e3bf 2a30 0e9f 7c6a e1bf
000001f0: 9090 23f2 4362 88bf aa41 c98d 4a98 b5bf
00000200: fc8e 150f eff6 a93f c4b2 0207 3dc6 c3bf
00000210: 8a68 34bc 5340 d2bf 7e20 8049 a056 e2bf
00000220: 2e57 d882 e7d4 c1bf c098 aaed 9f53 a3bf
00000230: 43f4 6c8c 40de e23f d0b0 67e6 d128 c0bf
00000240: 8676 fd32 f9ee cb3f 4614 7ebd e3f2 d23f
00000250: 669a e967 cb90 e73f 3eae 8ab7 ff94 d93f
00000260: e477 86eb 7ab2 b1bf a8ed 95ba 8bdd b6bf
00000270: 7f22 904d de5c df3f 136e 6669 763e dc3f
00000280: 4cbd eb92 6310 f1bf c626 3f80 ea0a e4bf
00000290: e1b9 cb73 ef09 d2bf 448c 518f e1f1 cabf
000002a0: 40ea 9fa5 b396 cc3f a8b0 7036 535b bbbf
000002b0: 303c 04a0 396c e2bf 2c90 c231 047c e3bf
000002c0: f026 f874 723c 9ebf 6cdb e42d bc08 b4bf
000002d0: 909d cadd bbd3 b83f 8838 f4c2 0883 b6bf
000002e0: c7cf 8a88 f336 d43f 4cd2 041a 137b d13f
000002f0: 808b f16b 15ad ef3f c498 079d a75c d63f
00000300: dc5b 0475 1acd c9bf e03a 5213 a622 9ebf
00000310: bc9b c706 71e9 e23f 952d 1aee c045 d53f
00000320: af73 8b73 3646 f1bf 92e3 69ee 7b9d dfbf
00000330: a416 88d4 1817 b7bf cc75 0083 1a6c c0bf
00000340: a83c 07dc eb88 e23f 70a3 ebf3 c5a3 aabf
00000350: 909d 03cb d64b e3bf 5dc1 0981 7d2a dcbf
00000360: 8c54 1464 8343 c83f 747e abb5 7dad b1bf
00000370: c653 eb5a edca d7bf aebc 0c07 3ce5 cebf
00000380: 2498 3ee0 8435 be3f 7c33 eb27 1c1e ac3f
00000390: 908f a711 a153 ef3f 22fb 7dd6 8084 cc3f
000003a0: 7967 461a b47d d7bf 007f 2ffa d9a8 703f
000003b0: a385 8076 1109 e33f 4426 e404 3cf5 ce3f
000003c0: ce54 50cf 211b eebf 8abc 19a3 454d dbbf
000003d0: d263 6705 daa2 b0bf 5a6c d3cd 0740 c1bf
000003e0: 77e0 dd41 4d66 e93f 4801 0e2c 4718 a23f
000003f0: 0bc2 16c3 bdd0 e1bf 6d40 556f 0830 c7bf
00000400: decd 4367 eb12 da3f 2cb4 57b4 b4b6 aa3f
00000410: fd17 2100 6cd0 e6bf 6c6e 453f e044 d6bf
00000420: 30a5 4e4f dcf5 8b3f 7840 ab18 f4bc acbf
00000430: 4301 f1eb 2de3 eb3f 1c39 5825 b92d bd3f
00000440: f835 5922 1699 debf 7b7a 118e 0b79 babf
00000450: 760f 6abb ac0c df3f 4789 bef4 77be c03f
00000460: 73a9 cf2b 8c96 e8bf 5f83 b3fc bf7a d7bf
00000470: 501c c9c6 2a70 76bf e42b e8c3 b660 b3bf
00000480: ceaf fe54 e642 eb3f 13c0 63ae bb39 b83f
00000490: 93cf eeaf 85d2 dfbf 84f3 0505 096d bfbf
000004a0: 8c6c 858d 1dcc dd3f e686 ea31 b37a bc3f
000004b0: c32b 5d8c a63c e8bf b844 2b13 b43c d7bf
000004c0: c2c9 e592 c1b4 5bbf caa2 cc1e b565 b2bf
000004d0: f120 a289 4662 eb3f 352c 8a55 192f b93f
000004e0: 8a34 2546 2e95 dfbf eedb ef60 356f bebf
000004f0: 33ab 0d77 290a de3f 8481 0bd8 e272 bd3f
00000500: 84ec f80c b351 cbbf a5c5 d97b a413 c2bf
00000510: 37f8 5627 5a2e cc3f 97e0 08e9 cf78 c33f
00000520: da71 2753 e81a f13f 18fd dd8b 1944 d33f
00000530: 361d beda 0034 d2bf dc0f 19dd 49e6 b43f
00000540: 13f3 47a3 c46f e53f 9cc0 70ba f29a d43f
00000550: 4ae5 a4a8 23a1 ecbf 82ea 2c92 d6e9 d7bf
00000560: a00e d8b2 41a2 83bf 925d ee7e 718e b4bf
00000570: 6cc5 ad15 b1db ea3f a0d5 77de 5490 b13f
00000580: e32c 00fe 1f74 e0bf b01d ef1f 6ea4 c3bf
00000590: 76de 4ff2 84ff db3f 34b7 cbcc a43c b63f
000005a0: ab6e dd77 c626 debf 3294 edad 281c d1bf
000005b0: 9602 c24c 4629 bc3f 38b9 1430 3212 aa3f
000005c0: 22ca 836d 21cd ef3f 55c3 0995 9fe4 ce3f
000005d0: 8aa2 c511 bfb9 d3bf 8c6d 0959 e32e a93f
000005e0: 15dc 1645 1fe6 e33f 10da 19c6 639d d03f
000005f0: e06e 305e b956 ecbf bece 00bd 580e dabf
00000600: 689e 2bbe e77d 9ebf 6ee1 b1b7 9cea b5bf
00000610: dc2c fa65 0954 eb3f 7a9c c6ed 7e00 ba3f
00000620: 91c7 46d3 4d91 dcbf 4487 3723 445c b6bf
00000630: 9e7d 1a7b 0eda de3f 24d4 6212 5417 bf3f
00000640: 6a95 3854 f646 f1bf c0ba 65c3 818a debf
00000650: 28f0 09f7 1db0 b4bf 08fe 3848 f2b5 c0bf
00000660: 3a43 80c6 6fbe e93f f07f acec 036c b13f
00000670: d55f a1d0 769d debf 82f8 88c1 58ea bfbf
00000680: 4f21 8653 8976 dc3f 6ca7 6168 6825 b53f
00000690: 9862 7196 3dbe f5bf 903d 64a9 a623 e4bf
000006a0: ac05 d140 d78e ccbf 4454 1492 82fb cfbf
000006b0: 3f27 c620 738e e63f a09e 7509 0561 60bf
000006c0: 9e31 fa70 9495 e1bf 36f6 e35c 5f53 cabf
000006d0: db4c b5f9 3c7d d73f 409d 4e19 5a0f 6f3f
000006e0: dd19 70b8 30a8 eebf e908 7c5a c6b9 dfbf
000006f0: 9a16 6fe6 7f19 b6bf acdf f642 e9c0 bdbf
00000700: 1973 8cc8 17e2 ea3f e4a3 7339 9340 c13f
00000710: 0ca6 273b 1d6a dabf aef7 941e 90a2 b1bf
00000720: 0505 4150 241f e03f dc69 7e07 d0ca c13f
00000730: 6d72 bbe1 78d7 eebf 3e79 c672 96d5 dfbf
00000740: edd7 9847 c088 b6bf ffa0 20a4 2930 bebf
00000750: aa4e c644 00d4 ea3f 4e74 62e7 b009 c13f
00000760: d73d 3064 8e85 dabf 01b9 be7f d011 b2bf
00000770: dbcc 1b44 3c11 e03f 3389 e9d6 2f93 c13f
00000780: 75f5 4d05 909a ebbf 4e74 073f 7a99 ddbf
00000790: 5bb7 9081 a164 abbf c024 501d ba59 b5bf
000007a0: 1244 ab87 4ef5 eb3f 2d7e e04e e981 c53f
000007b0: e738 7130 7249 d8bf 854a 8561 bf42 a2bf
000007c0: 534f fb5d 4a2f e13f 922a 9386 6925 c63f
000007d0: ac8e 4373 b7fd edbf 1846 06f4 c505 dfbf
000007e0: d7a2 c394 7f63 b3bf 38f0 2259 151e bbbf
000007f0: b7cb 263a 8e41 eb3f bf9c ce18 e8b2 c23f
