assets/improved_agent/red_weights.npy (npy, 800208 bytes, 1 tensors)

array f8 [10001, 10]
0	0xbf6ecc6affb97600	-0.0037595834562995645
1	0x3fdfeb891da0cdf6	0.49875095265744507
2	0x3fdaa17f696b57ce	0.41610703749517775
3	0xbfd6d940f5e25240	-0.35701011669269533
4	0xbfd8d630cb9be4ee	-0.3880731571549195
5	0x3fd2508b2f1e7d16	0.28616599656557307
6	0x3f40e0a5d8093c00	0.0005150613579391061
7	0xbfc99460f671999c	-0.19984066041361082
8	0xbfd3d8b3fb675ce2	-0.31010150481365717
9	0x3fbfe8fe94891c10	0.12464896322590868
10	0x3ffdb23020cd3132	1.856002929812416
11	0x3ffb002a485c375e	1.687540323884114
12	0x3ffad8627547d55c	1.6778282719872868
13	0x3fede26069499ee8	0.9338838631055895
14	0x3fe838fe1688e779	0.756957096112486
15	0x3ff73fcc6b5757b2	1.4530758088126103
16	0x3ff2adc5b44ab994	1.1674248736049764
17	0x3fefe136afe3d3ab	0.9962418971396024
18	0x3fea403ea772c6e1	0.8203423758006602
19	0x3ff3d91d50439a1c	1.240506471187138
20	0xc0062b1ec06f9a83	-2.77105474796855
21	0x3fc295833e6b5500	0.1451877646237918
22	0x3fc15744a5c844f0	0.13547571272696457
23	0xbfe3789357d3fa94	-0.6084686961547328
24	0xbfe88d5029d0951b	-0.7672501389212444
25	0xbfb235ab4d566980	-0.07113142622112001
26	0xbfd7fed0b1104ca8	-0.37492768565534584
27	0xbfe0e5179075a8e9	-0.5279653378941279
28	0xbfe6860f98e6b5b3	-0.7038648592330702
29	0xbfd0fedc3e1c56e4	-0.26555543962000017
30	0xbff0d9089d99729a	-1.0529867321230655
31	0x3fe5767e27712e13	0.6707144518235871
32	0x3fe55e201caa5782	0.6677399215575266
33	0xbfb3822324dda270	-0.07620448732417073
34	0xbfcef0cb47e8f120	-0.24172345172144905
35	0x3fdd8333131af22c	0.461132782609442
36	0x3fc4239a6ac07fc8	0.15733652317521618
37	0xbf82caf5004f6240	-0.009176172325099263
38	0xbfc5f70296b9bdb4	-0.17160065040250816
39	0x3fd111c1a85435a8	0.26670876921056186
40	0xbff7b0cc6caf6eac	-1.4806637044447752
41	0x3fe3e80d59b87a43	0.622076678500726
42	0x3fe2a16b636e5914	0.5822045270931846
43	0xbfd1540f36fd071b	-0.27075558061561517
44	0xbfd3711b8d96d0a2	-0.30377854182303043
45	0x3fd877b3c7bb6d8a	0.3823060465344602
46	0xbfb9d7a6af3752ec	-0.10094682481514966
47	0xbfae759e69d00600	-0.059491110245300405
48	0xbfd6254943d914ad	-0.34602576852587213
49	0x3f84b0aa1d87e2e0	0.010102585817536036
50	0x3fa62c14ef098740	0.04330506723341765
51	0x3ff6abbfd1797e7c	1.4169309790230775
52	0x3ff4e2aef985c276	1.3053426501247976
53	0x3fcf21845af9abce	0.24321035806801067
54	0x3fe5d58e71680206	0.6823188986746238
55	0x3ff2a4b0c7145580	1.1652076508083553
56	0x3fcc6327b5747208	0.2217759738931735
57	0x3fe940b82dd3837b	0.789150323395105
58	0x3fdb93db71cd454f	0.43089948762379476
59	0x3fe3d480522f81dc	0.6196900944888131
60	0xc0024ad032398b29	-2.286529915219394
61	0x3fe55e09812e6d47	0.667729141528448
62	0x3fe1cbe7d146f53b	0.556140812630168
63	0xbfe031150b0624be	-0.5059914794266189
64	0xbfb11f3d82e46d58	-0.06688293882000573
65	0x3fda9fd6d8c8369e	0.41600581331372577
66	0xbfe095d35974a9a0	-0.5182892558271313
67	0x3fadcf3c1f486e80	0.058221701449125085
68	0xbfd3c95f1bd646f5	-0.30916574209651
69	0xbfbed0e7a5122230	-0.12037513523149168
70	0xbff55fe8a8c53e7a	-1.335915240535455
71	0x3fefbeed4683eb7a	0.9920565011264977
72	0x3fec4b55900d3fea	0.8841960729132528
73	0xbfc740c516c29a2a	-0.18166411982856917
74	0x3fd03ce437104819	0.253716520093009
75	0x3fe792453848cd06	0.7366052722267404
76	0xbfc8d3be507cadb2	-0.1939618962290815
77	0x3fd87baf0e940a37	0.38254906104717484
78	0x3f8f0d0dda96ae40	0.01516161750153977
79	0x3fca1b1b42cce7b6	0.20395222436655808
80	0xbffa9759e1987341	-1.6619509517979199
81	0x3feccccb74bb5534	0.8999993591229782
82	0x3fe95933be44a9a4	0.7921389309097333
83	0xbfd184a62ef279a1	-0.2737212618320886
84	0x3fc4b14126fe371a	0.16165937808948955
85	0x3fe4a023668036c0	0.644548130223221
86	0xbfd2393014349baa	-0.2847404668158854
87	0x3fd2976b6b02ddab	0.2904919190436554
88	0xbfb3af6cd2f1dc69	-0.07689552450197969
89	0x3fbcf8f2d5c0bc26	0.11317365377975416
90	0xbff82e4a2ba8b90a	-1.511301203292137
91	0x3fee37c5a3849591	0.9443081086835027
92	0x3feac904e3702bb7	0.8370384637977314
93	0xbfcd5d63a2bff1cf	-0.2294125122715642
94	0x3fca7085bbac3f66	0.20655891097748763
95	0x3fe619a278703c3f	0.6906292297661664
96	0xbfceb31b93bb2f08	-0.2398409339278873
97	0x3fd580bba21e653d	0.3359822352591271
98	0xbfa061c7532b97a3	-0.03199599161398161
99	0x3fc44f19d9176d37	0.1586639699952259
100	0xbff835deb7782414	-1.5131518522996474
101	0x3fee328a480a81e7	0.9436694533397344
102	0x3feac3ba4fa62948	0.8363925510068748
103	0xbfcd728df1e7fb8c	-0.2300584250624208
104	0x3fca5bd52f03abd0	0.2059275130808076
105	0x3fe614671cf62895	0.6899905744223981
106	0xbfcec80901a37db2	-0.24047958927165564
107	0x3fd576267a8a605f	0.33533632246827055
108	0xbfa0b6708fcbbe97	-0.03264190440483821
109	0x3fc43a2c6b2f1e8e	0.15802531465145758
110	0xbfe1d744dfe96a38	-0.5575279591824431
111	0x3ff4ea36ece6efae	1.307181287192161
112	0x3ff37f8ede07a76e	1.2186421082537566
113	0x3fc1150055257a48	0.1334534087900059
114	0x3fe3e6a541badf23	0.6219049724377083
115	0x3ff1a2b1f39aad92	1.1022204891004077
116	0x3fc12feb522b0b9e	0.13427487861744408
117	0x3fe97b29400037da	0.7962843179718633
118	0x3fd80dc52b0f6a0e	0.3758404655942805
119	0x3fe168a1b2efaed6	0.5440224165772303
120	0xc00346b30ff6d5ce	-2.4095212218478315
121	0x3fe296cf59d3644d	0.5809094194802441
122	0x3fcf6a8189f46a68	0.2454378055197879
123	0xbfd8ecf36efee9d2	-0.3894623359625743
124	0xbfc4cbc5c5c97858	-0.16246864469116207
125	0x3fe07232e0d36d3a	0.513940276253755
126	0xbfc8a5652dcb0516	-0.19254746185291854
127	0x3fa4f8ea66c5bb70	0.04096157555146973
128	0xbfb4eaffed402028	-0.08171081106422717
129	0x3fc81545e5632650	0.18814920139839098
130	0xbfe60e06614e6f68	-0.6892120266452197
131	0x3ff0f5570ca5f892	1.0598974699092065
132	0x3ff2b704d7f1f4bc	1.169682353530603
133	0x3fe154339fcfcf51	0.5415285226176626
134	0x3fe1e67eb2b6afdc	0.5593865862369927
135	0x3ff38e8d7895c838	1.2223028860430656
136	0x3fe6fb87ee2322de	0.7182044650190524
137	0x3fe640566780d405	0.6953537007854044
138	0x3fd96cfd83a111a5	0.3972772393647353
139	0x3fe93bf8eb2996f9	0.7885708420769496
140	0xbffe7db89aa0d0f8	-1.9056936302341096
141	0x3fe84ca2c3cd995c	0.759354956081363
142	0x3fe826126a96f658	0.7546474534826286
143	0x3fc1699564a5a490	0.13603465475469934
144	0x3fd17b61b6645700	0.27315562068666566
145	0x3fe763dbb6aa35c0	0.7309397285150041
146	0x3fba519e2964ff28	0.10280788908584937
147	0x3fda2f111ff89f52	0.40912273523507736
148	0xbfd28a11ba0e367d	-0.28967707795604963
149	0x3fa1d5255c4184a0	0.03482929946108837
150	0xbffb65412cd3bbf7	-1.7122203589494782
151	0x3fea6f97d45b2559	0.8261222026423339
152	0x3fea4f3ea1261e1b	0.8221734187545197
153	0x3fca0e463ee2439b	0.20356062002659034
154	0x3fd5b4dd8b7c376e	0.3391641485367164
155	0x3fe986d0c737c1bd	0.797706975075975
156	0x3fc5b4a356e8af88	0.16957513564682025
157	0x3fde74fb4113b74c	0.47588998179604824
158	0xbfccba0861f31b34	-0.224427268816919
159	0x3fb9d08202804409	0.10083782731113912
160	0xbffc497d718e64f7	-1.7679418979444657
161	0x3fe9d5a563bd1dc5	0.8073298404714754
162	0x3fe9b54c30881687	0.8033810565836611
163	0x3fc79f5371391efe	0.1845497420165358
164	0x3fd47d6424a7a51f	0.3201532705266618
165	0x3fe8ecde5699ba29	0.7789146129051164
166	0x3fc34cd994709139	0.15078277347596172
167	0x3fdd41165fd7a824	0.4570976196251897
168	0xbfcf28fb2f9c3fd1	-0.24343814682697354
169	0x3fb4f29c672dface	0.08182694930108456
170	0xbff83f40efc2f34b	-1.5154427877125325
171	0x3feb01c702e11094	0.8439669662698344
172	0x3feb328ba7a7ea18	0.8499201082734684
173	0x3fce97e400de6fae	0.23901033441950176
174	0x3fdab346adf073fd	0.4171921442628557
175	0x3fec1808c67081bf	0.8779338718196
176	0x3fd00cfad51837ef	0.25079222497959014
177	0x3fe192ed88924b20	0.5491855304156594
178	0xbfc35f71cd02639a	-0.15135023603650383
179	0x3fc642d79630d99e	0.17391486009155427
180	0xbff00f1a34f338d4	-1.0036871021616678
181	0x3ff1ded60734a778	1.1169033318969621
182	0x3ff20fe176e5d127	1.1288771290247241
183	0x3fe040fc8f5833b8	0.5079329299638777
184	0x3fe77f38baf4a090	0.7342799808002543
185	0x3ff37102cc399492	1.2150905587707581
186	0x3fe24cf44af0291a	0.5718938315997406
187	0x3feb34fcfaf01770	0.8502182866220505
188	0x3fc4719ad8814f4a	0.1597169453767669
189	0x3fde23c7b704b84f	0.47093384621519346
190	0xbfff8260a1a50167	-1.9693304361572588
191	0x3feae5154dab2c6a	0.8404642598119498
192	0x3feb28269aa1b067	0.8486512203358075
193	0x3fcd2580f0b90744	0.22770702127496112
194	0x3fddc95a3e1c3995	0.46541458192305046
195	0x3fee4779fc8ca55e	0.9462251598935543
196	0x3fd364d15e134aa9	0.3030284327225368
197	0x3fe2b976f175630b	0.585139724348751
198	0xbfba00ce0774898c	-0.10157478029262829
199	0x3fc9dd60fe6f6188	0.20206844733798968
200	0xbffb1bbfe08c6712	-1.6942747851775875
201	0x3feed46bd0279244	0.9634303155440382
202	0x3fedfcba29e4b64c	0.9371004884939764
203	0x3fd3c0324c797570	0.30860574215133507
204	0x3fe423cb225ea498	0.6293693228991684
205	0x3ff1e6a45e55c294	1.118809097763152
206	0x3fdc9345e3e03850	0.44648883107663995
207	0x3fe8744a3f2f04d3	0.7641955598884586
208	0x3fb1a0467fe5c4ce	0.0688518583535995
209	0x3fd82f528d103256	0.3778883340426423
210	0xc0011b3a40da118c	-2.138294703154491
211	0x3fe9fb6c0ad94228	0.8119411670578005
212	0x3fe923ba64966630	0.7856113400077387
213	0x3fc455743776a54d	0.15885784824539897
214	0x3fde9596ba20a8f9	0.4778801744129307
215	0x3feef448f75d350c	0.9673199492769142
216	0x3fd2c4beff651aac	0.2932584280101007
217	0x3fe38d06ccf17601	0.6109651568219193
218	0xbfb599d51206b1c2	-0.08437854471293973
219	0x3fccc197512a2964	0.2246579309761031
220	0xc00098d7affde817	-2.074630141197314
221	0x3feaad5bf7b162a4	0.8336620176078964
222	0x3fe9d5aa516e86ac	0.8073321905578346
223	0x3fc72562423c4efb	0.1808283637443465
224	0x3fdff97693d0e9f0	0.4996010249630265
225	0x3fefa8447a0e9f77	0.9892904647758617
226	0x3fd42487ad62c7c4	0.3147296136113449
227	0x3fe43ef6b9c9967d	0.6326860073720152
228	0xbfb00a55ab45ade4	-0.06265769416284389
229	0x3fcf8957048aab53	0.24637878152619894
230	0xbffad1339ac56c4e	-1.6760746045827264
231	0x3ff0dd58d24e1bbe	1.0540397849124328
232	0x3ff044afcc9599f4	1.0167692176415786
233	0x3fd96089db156616	0.39651724238282904
234	0x3fe67d397c663022	0.7027862004920318
235	0x3ff3146156462d50	1.1924756403048669
236	0x3fe139350e3bb1c4	0.5382333066932508
237	0x3fea7f7011b8a312	0.8280563684575972
238	0x3fc3634f890cb42d	0.15146822158695397
239	0x3fdeac333116c7a0	0.4792602519402127
240	0xbff9223b025f95c4	-1.5708570568761937
241	0x3ff12cc7e55bdbe1	1.0734328231171661
242	0x3ff148f59e145bc4	1.0803123640996413
243	0x3fdd0576d0a68dd6	0.4534585034945996
244	0x3fe7dcc301be4688	0.7456984552429313
245	0x3ff416f67e8347a2	1.2556061689287863
246	0x3fe2dc5905d5f3db	0.5893979181270156
247	0x3fec11ad6cc25a3d	0.8771578907206458
248	0x3fca921ee0148bcd	0.207584247030438
249	0x3fe0f93d9025a5e7	0.5304248633739775
250	0xc0016495de02f312	-2.174113974061023
251	0x3fec98affcaeef40	0.8936386046620797
252	0x3fecbdaa2b69ec63	0.89815243224383
253	0x3fd183b73494fcd3	0.2736642850395132
254	0x3fe22f44766b80aa	0.5682699501885697
255	0x3ff1403738d9e4b3	1.0781776638744247
