assets/improved_agent/red_weights.npy (npy, 800928 bytes, 1 tensors)

array f8 [1001, 100]
0	0x3f7649c032ac4180	0.005441427968222334
1	0x3fbd43dbf8d6f190	0.114316700221883
2	0x3f9d67e24ad5cb00	0.028716598336766985
3	0x3fc4b4eede88c238	0.16177163949898143
4	0x3fc71e4d0d921fa0	0.1806122127784393
5	0x3fc9c2558ccbf70c	0.20124310850945226
6	0xbfca0a52a1904308	-0.20344002617687118
7	0x3fdd770b5dab6f0a	0.4603908934347919
8	0xbfb28ec532994d08	-0.0724910019428543
9	0xbfd23c1c321b1176	-0.28491883175981714
10	0xbfddd56eb9f502c6	-0.4661518875109717
11	0x3fd3079aac582816	0.29733912306312626
12	0x3fdd4881d0df60c8	0.45755048177444424
13	0x3fd34cc69625199e	0.30156101858701756
14	0xbfc4643953a54270	-0.15930859169249656
15	0xbfc24361a17873d4	-0.14268131622603042
16	0x3fda8db2a9730874	0.4148985533503329
17	0xbfcbee915489604c	-0.21821800830616878
18	0xbfd245d41bb04c7e	-0.28551199630710034
19	0x3fc145bc87fc23a4	0.1349406875599729
20	0xbfce4be590e9acdc	-0.23669118476696027
21	0x3fba1f7136b1c5e0	0.10204227052033543
22	0xbfc5953ca8053c00	-0.1686168499386156
23	0xbfcd40c2911b997c	-0.2285388191732628
24	0xbfd46cd21f774964	-0.31914189408157356
25	0x3f8407349450cac0	0.009779368187172621
26	0xbfc6efe8657dd310	-0.17919640498771416
27	0xbfd290b06d91b9de	-0.29008112621423077
28	0x3fda67e5150f87bc	0.4125912385626369
29	0xbfc9acb61cd72c20	-0.20058323295811054
30	0xbfc15870719f19f4	-0.13551145122455888
31	0xbfb01605828c4888	-0.06283602177816949
32	0x3f980c7652e39c80	0.023485039528989393
33	0x3fdb09b5602354f8	0.4224675597045713
34	0x3fbfb0ebd15ee660	0.1237933527144377
35	0x3fc95031b63f244c	0.19775983237039652
36	0x3fd9a54167129df2	0.40071139398284494
37	0x3fdb35cb66d1a094	0.42515835801032975
38	0x3fd69dcaa94a57f8	0.35338083774820417
39	0x3fd685661ffde9c0	0.3518920242710486
40	0x3fa2992247bdaec0	0.03632456899398795
41	0x3fba86a1eac8b9e8	0.10361682874711386
42	0x3f878f726b4b6b80	0.011504072093364348
43	0x3f995812cdb3a7c0	0.024750036053695856
44	0xbfd9d078fa3a85d0	-0.4033491557730402
45	0xbfdf51e02fb4621e	-0.48937229784636027
46	0xbfced7ab4c6978c8	-0.2409566996674981
47	0xbfc8e7cce2ec83e8	-0.19457398491161304
48	0x3fdfeaf01ee8018c	0.4987144758051947
49	0x3f92301f79307560	0.017761699458892166
50	0xbf8cf4d3dc955ec0	-0.014138846558736318
51	0xbfd9d457ecf5568c	-0.40358541622604416
52	0x3fc6fbdfea4d6ad0	0.1795616048865072
53	0xbfde4cdd82717ec2	-0.4734414838658091
54	0x3fdde5c72538273a	0.46714953074171073
55	0xbfd91dfcb7e70fec	-0.3924552722858141
56	0xbf9c2a298dd79540	-0.027504586489063287
57	0xbfd9865b33983dcc	-0.3988254550795005
58	0x3fb993ba42b487e8	0.09991039398713009
59	0xbfd182af1df4ad90	-0.27360132146233074
60	0x3fa640be7af0ea80	0.043462708003478845
61	0x3fd0656458cb2902	0.2561884753346392
62	0x3fbb1337f58cf788	0.10576200241936651
63	0xbfc42856ae630974	-0.15748103632911248
64	0xbfdd6df9c87f635c	-0.4598373849853965
65	0x3fcb7183d9a95ad8	0.2144017041016102
66	0xbfc7ecebde10a528	-0.18691776602762755
67	0x3fd3ac6dcc797e6c	0.3073992249319193
68	0xbfb3a02a69fb58a0	-0.07666268432089618
69	0xbfdcebd75ff481d2	-0.4518946110784131
70	0x3fdeb15dc482e2f8	0.47957557859949373
71	0x3fc67ca0282be278	0.17567827188010532
72	0xbfa181190314ef10	-0.034188062311356515
73	0xbfc88adf8aa9f794	-0.19173807402324583
74	0xbfc882e559656474	-0.1914946257118434
75	0x3fdba3a025a2c68a	0.4318619124925155
76	0x3fd26ee7e8703dd4	0.28801915835444203
77	0x3fdadb0dadb43234	0.41961996043463334
78	0xbfbc9085168f8480	-0.11158019829555776
79	0x3fb04cc6e25f7b80	0.06367152239498175
80	0xbfc37b7585c1c700	-0.1522051718816826
81	0x3fd224ae0f3d2ea8	0.283488764650182
82	0xbfc897508a014b9c	-0.19211775530365294
83	0xbfd7b43da86c832c	-0.3703760285152835
84	0xbfdc50d8d1cd1a90	-0.44243450630566716
85	0xbfd0d6bd048e7130	-0.263106588792442
86	0xbfd6305088d1d98c	-0.34669888840962737
87	0xbfbd0eb9dcecbc18	-0.11350595134420904
88	0xbfd27bac4f802d7e	-0.28879840625514663
89	0xbfdaecca82665884	-0.42070257887224494
90	0xbf9a9e5275483bc0	-0.025994575889906946
91	0xbf9c67efcaca50a0	-0.0277402369998333
92	0x3fd1bd0bf3329e14	0.2771634936311511
93	0x3fb911a40644aa80	0.0979254260352409
94	0x3fb26f0bf9c47358	0.07200693939053104
95	0x3fb2a4d67b55b420	0.07282772551634809
96	0x3fdfaf33ce726a50	0.4950685039599749
97	0x3f89d5ef07cae380	0.012615077424344312
98	0x3fcbad750a09a8dc	0.21623099317668604
99	0xbfc9eb7e1669c6f8	-0.20249916166681436
100	0xbff4a1f172d4adaa	-1.2895369039132256
101	0xbfbd3ccb2dd466ae	-0.11420888775719604
102	0xbfbbc005514af564	-0.10839875445068042
103	0x3fa99fe4d72bda6c	0.05004801870920947
104	0xbf9c432bf2d9c770	-0.027599989602499375
105	0xbfb2af50ae68e230	-0.07298759706544256
106	0xbfe13c4ce6f26978	-0.5386108885461871
107	0x3fb6f4b7e84dd200	0.08967160626873039
108	0xbfddfd9354df8208	-0.4686020211065913
109	0xbfe5a1650cb39ae4	-0.675951504524019
110	0xbfe63acc41cfec6b	-0.6946774754900508
111	0x3fd072de97d098e6	0.2570110781256417
112	0x3fdbbc10f7c13e12	0.43335365481195354
113	0x3fd209bff8327898	0.2818450855064696
114	0xbfc9183ab7a1f7b6	-0.1960519215244269
115	0xbfc8752505f0feae	-0.19107497015101188
116	0x3fd6c49ecf9b2561	0.3557507541086889
117	0xbfd22724708caf2f	-0.28363905898253255
118	0xbfd6bf1a1d23cd38	-0.3554139408654069
119	0x3fb0e11c6cb378ef	0.06593492177805492
120	0xbfd7ec724174f077	-0.3738065375544077
121	0x3fb3edadd2393b06	0.0778454435578447
122	0xbfc770f7462965a8	-0.18313494611611003
123	0xbfcec4641b71f450	-0.24036837902159158
124	0xbfd5d605bd764c93	-0.3411878919807318
125	0xbf93b80f981a3519	-0.019256824167816242
126	0xbfcb7acd0480e38d	-0.21468508453270055
127	0xbfd513cde489b94a	-0.32933375662004905
128	0x3fd7b8bb1430a0e6	0.37065007182765297
129	0xbfcef96b81056a07	-0.2419866924272613
130	0xbfcfa5661a5ce591	-0.24723507201433084
131	0xbfb5221ffa56cca2	-0.0825519548587175
132	0x3f87ded400618bba	0.011655479680660597
133	0x3fda6bc8e5687256	0.4128286590874145
134	0x3fbb17abe1621e60	0.10582994701882731
135	0x3fc648eea1926ea3	0.17410071267373892
136	0x3fd7cb7bf6e1f60b	0.37179469213137456
137	0x3fd929c65b36f662	0.39317473323521857
138	0x3fd46de1533f62fe	0.319206553741921
139	0x3fd45caa726fd088	0.3181558721109998
140	0xbfc60069f9fdecde	-0.17188763338695073
141	0x3fb11e9f22cf4f5b	0.0668734989151835
142	0xbf8597015494fa56	-0.010541925805793866
143	0x3f7bcc4c37021ef8	0.006786630358085459
144	0xbfdbf4f6c43905e8	-0.43682641184213233
145	0xbfe11223b5d9343e	-0.5334642936446767
146	0xbfd2dec59a325264	-0.2948469167543293
147	0xbfd0447b7b739669	-0.2541798310834112
148	0x3fdbd77772eadbe8	0.4350260374298487
149	0xbfa718afd3513d54	-0.04511022047574423
150	0xbfd274a590e4df08	-0.28836955213363114
151	0xbfdced399f319bf9	-0.4519790701510256
152	0x3fc3446aae051781	0.15052541253151833
153	0xbfdfd07f0cc7d996	-0.49710060356246666
154	0x3fdb135fe93a20dd	0.4230575349433943
155	0xbfdcd571f42f633b	-0.45052765699579184
156	0xbfb9361cdf822745	-0.09848194557903607
157	0xbfde8c9621883ca4	-0.47733071589113707
158	0x3f9069a8eef544ec	0.016028060517162254
159	0xbfd6cf648222eb77	-0.3564082404006323
160	0xbfd2ab58adbe941c	-0.2917081543658371
161	0x3fc938a0fde68bde	0.1970406760929952
162	0x3fb1fd6eb786d68e	0.07027332287438012
163	0xbfc7dbe18ec45942	-0.18639773818058286
164	0xbfe07074de3e7cae	-0.5137276020722277
165	0x3fc25bba9ba339de	0.14342434501163742
166	0xbfd183c63f9a4a4a	-0.27366787158203876
167	0x3fcb10bd5352ffac	0.21144835060658573
168	0xbfc6ef8d393f6a2c	-0.17918553633974577
169	0xbfe1b305344f66be	-0.5531030675585595
170	0x3fbbde0183aba1b8	0.10885629143343223
171	0x3fbc39d13737c8cb	0.11025722120374153
172	0xbfb2cd025d6a7538	-0.0734406927171748
173	0xbfcca2e9a1df4bf8	-0.22372169879835702
174	0xbfd01207b6b006af	-0.25110047188364154
175	0x3fd69d6537b2c7b2	0.35335665168087893
176	0x3fc895b18b407e7c	0.19206828402910847
177	0x3fd41042c161891a	0.3134924782263099
178	0xbfcccc093aa7bee9	-0.22497668613458835
179	0xbfa8b6ff802ba67a	-0.048271164317907414
180	0xbfe18bce658d0923	-0.5483161910454196
181	0x3fcb56d01b935bdd	0.2135868200918755
182	0xbfcdf5a48bbf1947	-0.23405892203863685
183	0xbfd9e426fe777826	-0.4045503125215667
184	0xbfe03228bee5201a	-0.5061229446810132
185	0xbfd63511064c3edb	-0.3469889222624098
186	0xbfdcc00c8af2b87a	-0.44922174042847696
187	0xbfcd0b239dd65ab5	-0.22690243918323963
188	0xbfda3cd052041dae	-0.40996177682287793
189	0xbfe14a3d97c658f7	-0.5403125728942361
190	0xbfdab0930ea0a80f	-0.41702724865410884
191	0xbfb8c45895f76281	-0.09674600278175129
192	0x3fce2d628236fe41	0.23576003416200034
193	0x3fb06eb5500c459e	0.0641892738751921
194	0x3f82b5618e7dbab0	0.00913501945589465
195	0xbf846ff8ab1a1be8	-0.009979193421953483
196	0x3fd93500c5c81ea7	0.39386004747982856
197	0xbfb96d88c17bf24d	-0.09932760928854485
198	0x3fb8bc275f79ec0d	0.09662099915469487
199	0xbfd4844feaa63bc1	-0.3205756942269851
200	0xbff424ef79a4e20e	-1.259017443821111
201	0xbfb8cb77f85dcad8	-0.09685468495971905
202	0xbfb73f022cbf4b0c	-0.09080518333875548
203	0x3fb18fb54c75d196	0.06859906307892624
204	0xbf7e338924327edc	-0.007373367031646896
205	0xbfaaf3cc98d62202	-0.0526412903373661
206	0xbfe09e72912e877b	-0.5193417392331264
207	0x3fbab1a3e05246fe	0.10427307345005585
208	0xbfdcf2e474798b65	-0.45232497572413016
209	0xbfe52cb88a86fefd	-0.6617090898143655
210	0xbfe5aca1db2118f0	-0.6773232726925738
211	0x3fd1148c4dd8ac8b	0.26687915422616787
212	0x3fdc5ff992488c3f	0.4433578423069697
213	0x3fd2b69424b6b0e7	0.2923937185794458
214	0xbfc79f59dfa453a2	-0.1845505086900206
215	0xbfc6fa0949742012	-0.17950550161936057
216	0x3fd77823a99d0d49	0.36670772136513513
217	0xbfd19f1bfe3bbcac	-0.27533626391864163
218	0xbfd627756b5840f9	-0.3461583660400858
219	0x3fb2f3dcdafbe3ca	0.07403354975021084
220	0xbfd6cc31785205e1	-0.35621296644248274
221	0x3fb67d503c5673ba	0.08784963105286084
222	0xbfc624a0886d906b	-0.1729927698280592
223	0xbfcd65f73b013b86	-0.22967424756140192
224	0xbfd516fbeedfa913	-0.3295278389692992
225	0xbf7ed5722fec6614	-0.007527776759866284
226	0xbfca0ecf8a088019	-0.20357698669340676
227	0xbfd489e51be67238	-0.32091644024493204
228	0x3fd852773b322f14	0.38003330975401295
229	0xbfcdec623cc2b137	-0.23377635924169635
230	0xbfcd4584a9ecf361	-0.22868402764461407
231	0xbfb26ecf4845eb67	-0.0720033217857413
232	0x3f96e2d103b68c2f	0.022349611140850264
233	0x3fdb248864715f14	0.424104784096458
234	0x3fbe3d694539c3c9	0.1181245607383651
235	0x3fc7de2f9732656e	0.18646807558688344
236	0x3fd88b6241074f0c	0.3835073123020585
237	0x3fd9bb307d238fb1	0.40205013485523994
238	0x3fd50ffb4f18f8e9	0.3291004440724366
239	0x3fd4ea812ece33b5	0.32681302615020097
240	0xbfc369a0c4c447e7	-0.15166101081609826
241	0x3fb41060d2ca9783	0.07837491174958981
242	0x3f5251c3f1fbadc0	0.0011181272056387387
243	0x3f938a089d1f1d60	0.01908124407762324
244	0xbfdb1955b91c6251	-0.4234213168834105
245	0xbfe0a3acd7a4ee15	-0.5199798785974418
246	0xbfd20d8a1974f4a7	-0.28207638250371264
247	0xbfcf4bddfa8d5a62	-0.24450278028480726
248	0x3fdc8835a33e7f5d	0.4458135694676367
249	0xbfa2437c8107c520	-0.035671129942679736
250	0xbfd1274af8656abc	-0.26802324540555467
251	0xbfdc2fabc0f32cab	-0.4404096016193743
252	0x3fc4c4c10f88faf4	0.1622544599394683
253	0xbfdf05de91f7de31	-0.48473324064932216
254	0x3fdbf04da5a2ad2f	0.4365419499906293
255	0xbfdbf7358e8515b3	-0.4369634525104075
