assets/improved_agent/red_weights.npy (npy, 800928 bytes, 1 tensors)

array f8 [1001, 100]
000000 40 3c 6c 59 e7 94 a5 3f 70 a7 9d cd 08 04 c3 3f
       0.04215167013727994 0.14856061973415136
000010 80 85 81 3d 88 81 bd 3f 74 ff 3e 10 96 2a cd 3f
       0.11525775434122032 0.22786212723985566
000020 60 6e 6a b5 4d 4a ae bf 48 57 51 b0 95 5c bd 3f
       -0.05916064109370889 0.11469398073799397
000030 08 29 e6 4d a3 44 ca 3f 00 70 13 69 06 2e 95 3f
       0.205219662701275 0.020683384097409885
000040 34 22 18 db d0 95 d4 3f 18 2d d9 4f 5e 58 b6 bf
       0.3216440333931445 -0.08728589486525029
000050 b4 a2 97 96 b7 04 c7 3f 70 5a a4 5e 60 cb c5 bf
       0.17983145573750436 -0.17026905652228974
000060 08 bd fa 41 a4 fb c8 bf b4 7d 6f 3b 74 38 dc bf
       -0.1951794931569355 -0.4409456806588097
000070 e4 0d 04 93 44 6b c7 3f 92 bc 42 21 5c 15 d5 3f
       0.18296105555064834 0.32942870376695865
000080 04 81 49 0f ff 9c d9 3f ee 58 c4 a0 f3 3e da bf
       0.4002072953499154 -0.41009226512814123
000090 14 e4 f8 ad 20 d6 c0 bf 40 fb 62 50 a0 8d a3 3f
       -0.1315346574281483 0.03818989735872558
0000a0 bc b9 cd d8 bb 2d da bf 22 70 1f b8 7e 14 dd bf
       -0.4090413682196432 -0.4543759153436914
0000b0 20 97 59 a7 fe f8 df bf b8 d6 24 8c 30 0e ba bf
       -0.4995724329258895 -0.10177901669961897
0000c0 80 cc 25 5e 3a 0e 9d bf a8 22 f7 67 70 cd c2 bf
       -0.028374588009182578 -0.1468945033687039
0000d0 66 09 4f 77 06 f0 df bf 7c 98 b3 6d 8b 11 dd bf
       -0.4990249791263949 -0.4541958400062709
0000e0 be c4 8f 50 c9 b0 d2 bf c0 8b 39 13 de c7 ab 3f
       -0.2920401846632322 0.05425924286534878
0000f0 e2 5e 41 7b 3d 7b dd 3f 48 74 e7 1f b9 86 c9 3f
       0.46064698254256886 0.19942392404382958
000100 66 72 31 29 13 19 d5 3f 20 a0 22 39 6b 5c cc 3f
       0.32965544722336515 0.2215703991871587
000110 7c 51 2c 76 8f 8d c4 3f e0 01 90 38 ce 67 b9 bf
       0.16057008047267718 -0.09924019699975117
000120 30 75 25 6a 54 df b1 bf d0 dd c1 21 39 3d a1 3f
       -0.0698139914652145 0.033670220728648226
000130 20 c3 4f f8 ed 92 a0 bf 80 d7 a6 ba 9e 2f 82 bf
       -0.03237098365923985 -0.008879890509756683
000140 24 c9 4f eb c7 b9 d3 3f fc 43 4d 27 a7 25 d6 bf
       0.30821416835455495 -0.34604815328663086
000150 90 53 7b b6 20 0e ca bf 30 ad 3b ba 7c e1 df 3f
       -0.20355614576569936 0.49813764750315936
000160 7c 28 e4 aa 36 8e c6 3f 92 21 85 ea 1c a1 d7 bf
       0.17621501297282183 -0.36920855429027555
000170 28 7b 21 4b 43 a2 b1 bf 9a ac 5a 03 09 60 df 3f
       -0.06888218483207409 0.49023652389105055
000180 00 d4 a6 57 d4 69 d7 bf 2e 8c c7 77 25 68 d5 3f
       -0.3658343177770007 0.334481589290763
000190 00 34 e4 bc ac 75 c2 3f 26 d6 16 b1 5b e0 d2 bf
       0.14421614859784881 -0.2949437360178727
0001a0 0e 6d e1 37 19 a9 d6 3f d4 2f 81 a3 99 d8 ca 3f
       0.35407095391356413 0.20973511203408057
0001b0 3c eb de 1e 0e 34 d1 3f 80 13 47 7d e1 2d 91 3f
       0.26880219473575884 0.016776583930340205
0001c0 d4 bf 4f 45 8f 97 de 3f 20 14 1a 9f 6b d5 b2 3f
       0.47800046700194554 0.07356903681109417
0001d0 e0 15 86 4c 0f 79 d1 bf 0a 31 39 79 44 e8 d2 bf
       -0.2730139014532522 -0.2954264816114721
0001e0 1c d9 32 e8 b2 c4 d7 bf 4e 61 0d 84 7e 7a d8 bf
       -0.37138054538390164 -0.38247645278672315
0001f0 c8 ac e3 fd 64 4a d4 3f d4 8a 7e 72 82 fa c1 bf
       0.3170406798732981 -0.14045744505445745
000200 08 99 ed 1d c9 aa ce 3f 88 fa ba 73 14 fb d3 bf
       0.23958696328481488 -0.31219970037265243
000210 22 cb 21 b5 f5 8c d7 bf 02 02 d6 58 cd c6 d2 bf
       -0.3679785031192059 -0.2933839194811584
000220 c8 4c ba 01 b2 c5 bd bf a0 b3 8a aa d1 aa d9 3f
       -0.11629784147435196 0.4010509648749636
000230 18 69 fd 99 76 5a df bf 20 fa aa 44 f4 3e b9 bf
       -0.48989644086909 -0.09861685444318669
000240 3e 01 02 66 87 6e dc 3f 4e 7a 8a 52 1b 77 dc bf
       0.44424614869787493 -0.444769697767616
000250 18 cd f4 3e 7a 62 d9 bf 30 93 7b 97 60 75 d3 3f
       -0.3966355910117314 0.30403914254411557
000260 48 f6 5a 4a 8c b8 d6 bf 2c 81 e6 32 8d 4a c6 bf
       -0.3550139165998627 -0.1741501329934264
000270 d8 21 4e 8b d7 17 c5 bf 1c bb c3 40 b1 3f d1 bf
       -0.164790099163169 -0.2695124752489606
000280 f0 f6 d8 d8 59 fa ab 3f 80 19 84 45 9f 9b aa bf
       0.054644401283878596 -0.05196855281433255
000290 a8 2a fe de 46 7d bc 3f 98 88 81 6c f8 3f b4 bf
       0.11128657287751287 -0.0791011109263614
0002a0 28 13 83 d9 9b 75 d6 bf 0a 89 44 10 20 87 d3 bf
       -0.3509282707348569 -0.30512239063877244
0002b0 c2 06 5e da 6e 45 db bf 7c a9 8e eb b7 8c cf 3f
       -0.4261128551953385 0.24648188592739106
0002c0 b4 3f f4 23 24 a4 d1 bf 88 6d d6 7a 99 74 b9 3f
       -0.2756433821787099 0.09943541764226016
0002d0 40 a1 d7 59 43 44 bd bf 00 74 8c bf c1 a4 78 bf
       -0.11432286208549147 -0.006016499356317873
0002e0 b8 4c 09 fb 47 6d d0 bf aa d1 ea c9 da af d6 3f
       -0.2566699935461645 0.3544833156440982
0002f0 c0 51 04 f3 fc 92 ba bf 40 d5 0c 98 b7 0d a9 3f
       -0.10380536015538322 0.04893277865486789
000300 08 c5 0a 97 0e 8a bf bf 50 15 20 d9 f4 1e b6 3f
       -0.12320033252287399 0.08640985775862942
000310 04 2b cb 52 35 34 c2 3f 26 8e f0 2f f8 32 de bf
       0.14221827070863224 -0.47186093026741316
000320 8d a5 2c 10 45 0f e9 bf 2e 32 62 ae 12 47 b7 bf
       -0.7831139865785858 -0.09092823750888421
000330 8e fb 1b 0c 9c cd bf bf 30 11 fc 48 c1 cf 87 bf
       -0.12423110290181524 -0.011626730003179903
000340 10 ae 14 c9 12 1d d3 bf c6 29 4c 99 8e f2 bf bf
       -0.2986494983367445 -0.12479487650504159
000350 fc 5d a2 5b bb 8b a1 bf cf 50 8f 0c ea d5 cc bf
       -0.034269194541760556 -0.225278144963005
000360 7a 09 e0 6d 06 34 b4 3f 1c 6b 96 d3 e6 1e d5 bf
       0.07891884024141929 -0.33001108801697554
000370 4c 77 dc 38 6a 8b ae bf 12 56 dc f2 b5 b0 ce bf
       -0.0596574015055312 -0.23976778372222946
000380 55 5c 19 eb 7c f0 d0 bf c3 bd c5 82 8f 55 e0 bf
       -0.2646782203568752 -0.5104444078587494
000390 83 24 98 fd dd 0b bd 3f c1 be 26 57 b1 a2 d0 3f
       0.11346232835070862 0.25992997656701894
0003a0 33 83 2d 45 54 2a d5 3f cc a2 5d c3 64 d0 de bf
       0.3307085681499757 -0.4814693363064577
0003b0 c3 2b ae 9a 3c da c9 bf 7c 23 72 62 cf 82 a0 bf
       -0.2019725566172764 -0.03224800183040252
0003c0 00 8d 9a 75 c2 c0 e4 bf fa b6 1d c1 94 c3 e0 bf
       -0.6485302254626788 -0.5238746425436311
0003d0 79 ca ba b8 d4 35 e2 bf fe 66 4a da 6d ec c5 bf
       -0.5690711601258293 -0.1712777438995587
0003e0 65 6a f9 bf 39 0e b9 bf 4a 1e 2f fc c5 b2 cb bf
       -0.0978733152091223 -0.21639323056864362
0003f0 9c 83 b5 a0 58 31 e2 bf 2d 71 26 48 7e d1 e0 bf
       -0.5685237063263346 -0.5255729111845874
000400 96 68 ea 46 d7 32 d7 bf f8 25 37 3f 23 91 90 bf
       -0.36247808385236036 -0.016178656323779322
000410 3d fd b3 d1 e8 4e cc 3f a6 78 af 8b 63 a1 c0 3f
       0.2211581252995333 0.12992519684388987
000420 95 74 15 5f 68 a6 d0 3f 7e a4 ea a4 15 77 c3 3f
       0.26015672002342544 0.152071671987219
000430 b3 ab e8 c3 73 50 b7 3f 92 fc 7f b0 3c 99 c5 bf
       0.09107135327273745 -0.1687389241996909
000440 3a b6 4a c9 ff d4 c1 bf 20 71 08 f3 4f 4e a3 bf
       -0.1393127186651542 -0.03770685044966826
000450 ee 70 92 d5 ae 51 ba bf 4e 6a bf b0 2b 4e b4 bf
       -0.10280888284836795 -0.07931778969888478
000460 82 a3 a1 63 fb 97 b1 3f cd 41 69 f1 51 98 da bf
       0.06872531111151939 -0.41554688048657057
000470 99 a7 59 25 bb 79 d1 bf 5f af 1f f0 d1 6e db 3f
       -0.2730548729656391 0.42863892030321965
000480 b3 59 58 2d c2 51 bb 3f 63 1f a1 b4 c7 13 dc bf
       0.1067162857728821 -0.43870728149021526
000490 36 b9 c8 39 77 b6 c1 bf bc 62 c1 e0 97 ce da 3f
       -0.1383809120320138 0.41885945271273406
0004a0 d8 77 01 4e e2 eb db bf 56 e8 6c 81 17 e6 d0 3f
       -0.43627221696612883 0.26404369010163486
0004b0 0e 19 d5 cf ca 63 b8 bf f7 d3 32 7b 06 53 d7 bf
       -0.09527270864518675 -0.36444246321781243
0004c0 3d 6f c5 6d 6e 36 d2 3f 32 34 49 0f 44 f3 c1 3f
       0.2845722267136244 0.14023638483414086
0004d0 d6 da 85 a9 c6 82 c9 3f ca 64 3c 92 65 fe aa bf
       0.19930346753581912 -0.05272214326959952
0004e0 03 c2 33 7b e4 24 da 3f 00 95 9d 96 e2 f4 61 3f
       0.4085017398020058 0.0021919656327776815
0004f0 b8 b9 e0 42 1d fb d5 bf e2 d4 93 6f 52 6a d7 bf
       -0.34345180064238034 -0.36586438080060024
000500 b0 1c 4d fd 3d 8c e3 bf 1f 5f 29 4e 29 ed dc bf
       -0.6108694026269372 -0.45197517998666287
000510 ee 5d 8f 67 74 af cf 3f 76 86 b6 06 d8 df ca bf
       0.24754195267335838 -0.20995617225439717
000520 66 9d b5 89 73 c5 c5 3f 59 f8 d6 3d bf 6d d8 bf
       0.17008823608487517 -0.38169842757259215
000530 f3 c8 3d 7f a0 ff db bf e0 4b 6f 7b 3e 58 d7 bf
       -0.4374772303191456 -0.36476099065947487
000540 13 6e 92 ed f4 e6 c7 bf c8 0f 30 b4 c3 28 d5 3f
       -0.18673574066348006 0.3306130656858355
000550 40 24 6b 03 26 8c e7 bf cc 10 88 67 5c c2 c5 bf
       -0.7358579699295049 -0.16999392562150317
000560 60 b7 68 43 16 dd d7 3f 16 e2 91 3a 46 84 e0 bf
       0.37286907751955845 -0.5161467689459325
000570 f6 16 8e 61 eb f3 dd bf a4 92 c4 e9 de c7 cd 3f
       -0.4680126621900479 0.23266207136579908
000580 26 40 f4 6c fd 49 db bf 08 b8 58 04 a6 ac cf bf
       -0.4263909877781792 -0.24745631420358927
000590 24 87 a0 16 55 5a ce bf c2 ed 6c 06 f0 e0 d5 bf
       -0.23713172535740867 -0.3418541014432003
0005a0 ef 01 0a 09 08 13 c8 bf 1e 9c 2c 7c 07 56 bf bf
       -0.18808079186784663 -0.12240645200346065
0005b0 94 36 27 0b 1e ea a4 3f fb 0b f6 22 18 24 c3 bf
       0.04084867368838477 -0.1495390101154895
0005c0 00 b7 dd cf a9 f7 da bf e2 2c 9f 06 2e 09 d8 bf
       -0.421366169923985 -0.3755602898279006
0005d0 9a aa b8 d0 7c c7 df bf 30 44 3c 60 3a 4a c6 3f
       -0.4965507543844666 0.1741402597331514
0005e0 f3 2a f6 81 ca 35 d6 bf 34 02 3b 0b 00 b8 9c 3f
       -0.3470331448703938 0.028045654950576274
0005f0 26 08 16 16 e0 d9 d6 bf 9e 56 63 f5 83 92 b3 bf
       -0.3570480552372167 -0.07645439854544597
000600 90 f0 63 f1 55 ef d4 bf d2 2d 90 d3 cc 2d d2 3f
       -0.3271078927352926 0.28404541645497006
000610 8f 70 37 66 9a 4d c6 bf f8 92 90 35 70 05 96 bf
       -0.17424325934451132 -0.021505120534260208
000620 33 aa 3a 38 23 c9 c8 bf c0 55 da 13 ce cf 8c 3f
       -0.1936382317120021 0.014068231564389744
000630 0d a9 8e 2d d1 21 b2 3f b2 3c f9 46 4f 62 e1 bf
       0.07082850801694836 -0.543250692959097
000640 61 3f 4a bb 99 5f e3 bf 5c eb 70 a8 a4 ca a8 bf
       -0.6054199846275702 -0.048421044885307934
000650 1d 7f 45 ac 30 be b4 bf 79 74 c7 78 3c 86 a0 3f
       -0.08102707105490166 0.032274141067071
000660 e9 9e 60 35 78 7b d0 bf 38 2d cf 44 79 3e b5 bf
       -0.25753598415984286 -0.08298452310480264
000670 10 6c c4 62 15 df 80 3f 72 f2 d3 ea 5f c0 c7 bf
       0.008237998081815717 -0.185558309232778
000680 26 86 03 b7 c5 8c be 3f f5 5b e2 3f 4c 7d d2 bf
       0.11933551519498362 -0.2888975738400739
000690 98 fc 11 09 d3 8f 91 bf c8 01 81 55 83 63 cd bf
       -0.017150208881954926 -0.22959939646717786
0006a0 f5 e5 29 71 28 47 d0 bf ea 38 5a 60 0f ff df bf
       -0.25434313822879 -0.4999426308576306
0006b0 3b 6b 40 de 69 90 bf 3f aa 9c 92 7a 8f 46 d1 3f
       0.12329732585969293 0.26993166894903686
0006c0 58 2d db 93 ed d0 d5 3f 95 29 b7 21 b8 34 de bf
       0.34087695540502727 -0.4719677285435407
0006d0 de a0 dd 00 6d 9d c8 bf 17 2c 43 42 6f f3 96 bf
       -0.19230425398132572 -0.02241300432141821
0006e0 72 bd 9f 09 d5 5e e3 bf ca fb 25 84 ea 6e e0 bf
       -0.6053261936157652 -0.5135395604155459
0006f0 c2 57 06 2b c7 df e1 bf 05 be 85 60 aa 8e c4 bf
       -0.5585666504218738 -0.16060380661973298
000700 56 09 07 e4 1c 7f b6 bf a6 0f 43 4b aa 65 ca bf
       -0.0878770882327776 -0.20622757601642866
000710 6c c8 bd 63 ae dc e1 bf 19 94 21 4e 61 82 e0 bf
       -0.5581886241982494 -0.5159155393599831
000720 60 3f 67 b1 d6 91 d6 bf ee 86 b6 3d bf 52 79 bf
       -0.35265128445188587 -0.00618242934743461
000730 b7 cd 3a 02 ba f6 d0 3f dd fd 11 d6 82 f9 c1 3f
       0.2650589963697842 0.1404269738450087
000740 11 c9 f7 1b 4a 55 d1 3f 39 71 11 4e 7d da c4 3f
       0.2708306573032511 0.16291776954575157
000750 19 27 25 9b 21 ea b9 3f 1d 9b 7f 95 c1 46 c4 bf
       0.10122880971644256 -0.1584093074772789
000760 03 31 e8 7e e0 7c c0 bf c6 30 41 7f 2b 90 9c bf
       -0.12881094166403537 -0.02789371456337688
000770 0c 3d 1a 5d 49 c3 b7 bf e8 ee 82 d9 7d b4 b1 bf
       -0.09282358668336971 -0.06916033325517967
000780 20 e0 71 b2 65 1e bc 3f 1f 30 3f f9 2e f7 d9 bf
       0.10983882528842104 -0.40571188297758626
000790 55 0f 5d ee f3 d5 d0 bf 39 ce ee 65 3d 15 dc 3f
       -0.26305864598929435 0.4387963767469248
0007a0 bd 6b 6c 17 2c c1 bd 3f 4b 94 49 fb 48 75 db bf
       0.11622882434714561 -0.42903351344859136
0007b0 da 95 74 49 31 74 c0 bf 13 5a a1 dd 29 65 db 3f
       -0.1285459145230295 0.4280495323522768
0007c0 eb f9 4e 12 ac 52 db bf d9 ec f1 fb f1 81 d1 3f
       -0.4269209078592257 0.2735562286758984
0007d0 ff 38 b0 f6 6a 5f ab bf 0e f6 c6 57 28 af d6 bf
       -0.053462355244947794 -0.3544407708357945
0007e0 8f 76 3b 46 fc dc d2 3f a7 95 49 2a bf 45 c3 3f
       0.2947378812658394 0.15056600155655284
0007f0 07 f1 34 1c c4 bf ca 3f c3 c0 2e 1f f2 f4 a5 bf
       0.20897723557744305 -0.04288441305777859
