assets/improved_agent/red_weights.npy (npy, 800208 bytes, 1 tensors)

array f8 [10001, 10]
-0.35724492763996485 -0.2789679841197269 0.48366404459628953 0.1122264579012745 0.2602250958292066 -0.4010954125431305 -0.3318729749575552 -0.4405004519516895
0.07788880741929627 -0.30367034362427836 -0.32617732289192103 -0.26849028212626896 0.4942635803338574 0.12282599363884239 0.2708246315667745 -0.39049587680556264
-0.3212734392199873 -0.42990091621412163 0.08861017690097413 -0.29307080788671047 -0.4599812520447152 -0.3104679853898907 0.4517611557794404 0.0808482903752207
0.22832220701235753 -0.43247358006918435 -0.363251142483609 -0.47135389818694806 0.046632473637352435 -0.3345237898595369 -0.419661596496104 -0.2976605653920965
0.4645685757772346 0.09365571037301484 0.24097151071388262 -0.4198242763676593 -0.35060183878208395 -0.45886271078169205 0.05896554474633939 -0.32187448615801184
-0.4926469701494509 -0.31912685176072797 0.44310228940860313 0.07247564115596515 0.2195052243452512 -0.44071812843312724 -0.37178190799913363 -0.48004277999874173
0.03749925837770794 -0.3430545553750615 -0.42987280929547844 -0.29894065101552897 0.4630423169739826 0.09241566872134464 0.23944525191063068 -0.42077810086774775
-0.35208805361357365 -0.46010275243336224 0.05768545912290693 -0.32311452780968203 -0.4412854448237433 -0.3024763302576189 0.4595066377318927 0.08892474491269892
0.23595432810198494 -0.4242690246763935 -0.3555789774222194 -0.4635489208085638 0.054194535314261195 -0.32665020705177195 -0.3762049558991321 -0.2805276163457892
0.48120013404009643 0.11061824122090266 0.25815825961744054 -0.4023203107645638 -0.33388548111401567 -0.4416002068967341 0.07537759641521308 -0.30546714595082003
-0.03703957729837676 -0.1435314045972488 0.6155362251721603 0.25027457358591954 0.3938244110577427 -0.27064434024897643 -0.2022095105984283 -0.3218947791552911
0.18843272261546484 -0.19241201975056826 -0.3038967620116478 -0.23457679702883538 0.5244908327405737 0.16027567991791442 0.3027790186261561 -0.36273623144414446
-0.2932549030300149 -0.4139866703504591 0.09738733018387825 -0.2824109134185734 -0.35665415042664167 -0.2523694848864412 0.5064912531636935 0.14248299206030862
0.2851932224878248 -0.38052891930175026 -0.3110475908876207 -0.4315724664887904 0.07938775060699799 -0.30041049299545364 0.3752786701402023 -0.06292804897502272
0.7791721078846745 0.4467374194331928 0.7358342139740778 0.19927668757865158 0.15107469974477883 0.28887905493190696 0.8113205711738419 0.265043489952265
-0.13909811235167874 -0.19404369941412963 0.6480564574455676 0.3136046051411765 0.6087528912407896 0.06816103713954466 0.01995904930567191 0.1617977321986187
0.6842392484405537 0.13796216721897675 -0.5539686128781498 -0.3209452642810502 0.517901006300008 0.18182221085629743 0.48185132637386896 -0.060367470866695416
-0.10856945870056817 0.03652311047101764 0.5557107404343137 0.009433659212736673 -0.6246233782588624 -0.3472676278542568 0.4954577278849582 0.16381217262199815
0.45663727284585 -0.08558152439471439 -0.12935027204783656 0.02017553730449984 0.5332674620192638 -0.013563774224907014 -0.7159034282741314 -0.37912615511448794
0.46359920062472704 0.13195364536176699 0.42477874558561884 -0.11744005165494556 -0.16049287734716364 -0.011682989955731322 0.5010509737785805 -0.044706379524234105
-0.8014132923603611 -0.4052821135408641 0.4374432421983509 0.10613301973572903 0.39828745435890456 -0.14326067728098352 -0.1863135029732016 -0.03817428118244559
0.47455968255186626 -0.07086233795061023 -0.8266679569682549 -0.41330418347513626 0.42952021016450187 0.09820998770187998 0.3903644223250555 -0.15118370931483255
-0.19433557290747375 -0.046097313216294636 0.4667356884184403 -0.07878536998445927 -0.8312750822447963 -0.4142798100042862 0.4281109718446186 0.09674654790815508
0.38877451242570005 -0.15271941774034634 -0.1958532141750403 -0.04757882016796676 0.46525418146676817 -0.08028494409407862 -0.8320649289097548 -0.41454309222593905
0.42785078706086754 0.09648946056230583 0.388514327641949 -0.1529765050861956 -0.19611030152088957 -0.047835907513816014 0.4649970941209189 -0.08053893400202608
-0.7989865153874226 -0.4028683580415865 0.4395255212452201 0.10816419474665837 0.39992962328887144 -0.1414314901705581 -0.18456528660525207 -0.03642061186689354
0.47641238976784134 -0.06899391908638858 -0.5581633109161341 -0.31692752821065606 0.5547428975020718 0.22054835683325968 0.5283686656735587 -0.004492805275119527
-0.0806807670294021 0.05990866992162187 0.5699084573861063 0.01128048240404092 -0.35140652768464087 -0.20260318924735976 0.663391560062935 0.33244026305265606
0.6337740845758886 0.10091261362721038 0.0352651937631608 0.16126003425078525 0.6809895526908694 0.13209130868440366 -0.6165850617081465 -0.2909960339218617
0.572918883749033 0.24300750255845413 0.5453812399013866 0.010439937313308431 -0.05416756673104113 0.0707873579368833 0.5915567921966675 0.042658548190201734
-0.7361842767812523 -0.3177299761146736 0.5452469084968242 0.21345946118745154 0.5153641820006856 -0.028488434651663237 -0.09168888910691744 0.023885704967037923
0.5413720235189329 -0.007526220487532827 -0.48782111269358214 -0.19695730024459082 0.6669935575594076 0.34007597621253827 0.6351628846782676 0.09033629483341818
00000000: c608 38d4 19dd d6bf b237 1b88 9cda d1bf
00000010: 92b2 7209 5af4 de3f a890 6e86 dfba bc3f
00000020: 8ad5 0b29 87a7 d03f 28b2 dc17 8cab d9bf
00000030: 7e9c 7725 683d d5bf d05d c0ce 2831 dcbf
00000040: 301f 9758 85f0 b33f 2a68 a8bc 556f d3bf
00000050: e620 a1d9 16e0 d4bf 41ac 41dd f12e d1bf
00000060: 7ed1 48b6 03a2 df3f 580c c739 8671 bf3f
00000070: 76f4 e1d5 3055 d13f 3c93 066b e2fd d8bf
00000080: 927d a178 be8f d4bf e43e ea21 7f83 dbbf
00000090: cde8 e113 28af b63f 3e49 d20f acc1 d2bf
000000a0: 2688 9334 5570 ddbf f117 ed1c b5de d3bf
000000b0: 4241 6b9f a7e9 dc3f 9a5d 193b 79b2 b43f
000000c0: 75c8 087e a939 cd3f ecfe b1aa a5ad dbbf
000000d0: 42e9 4cb8 813f d7bf 0886 638a a92a debf
000000e0: 1d74 682a 36e0 a73f 6290 4b78 d668 d5bf
000000f0: 66a0 1550 bcdb dabf 44bf 6ae6 de0c d3bf
00000100: ef99 edd5 7dbb dd3f 4cc0 2215 d2f9 b73f
00000110: da54 e48a 27d8 ce3f ba38 44a4 66de dabf
00000120: 1023 dfb1 4270 d6bf 5052 0ab4 015e ddbf
00000130: 0c7e 8d5c bb30 ae3f 30ca dd71 9799 d4bf
00000140: fcfb 5028 8787 dfbf f89d e507 936c d4bf
00000150: 3bbb 72b4 c95b dc3f 2781 857c c38d b23f
00000160: 7397 ee47 bf18 cc3f 99f9 17cf b934 dcbf
00000170: d972 0658 46cb d7bf 19a2 315a 05b9 debf
00000180: 6e88 b650 1a33 a33f f919 0518 9bf4 d5bf
00000190: 4447 573e 0983 dbbf 17a0 e3f7 d721 d3bf
000001a0: fd4e 043e 7ca2 dd3f 2fd0 cba2 8da8 b73f
000001b0: f7be 115b 24a6 ce3f d765 8645 07ee dabf
000001c0: 3649 e554 9c88 d6bf 570e a0d0 5272 ddbf
000001d0: 7477 c6d0 f288 ad3f 3786 738e e8ad d4bf
000001e0: a800 6e4e 053e dcbf fe50 91ae c55b d3bf
000001f0: 169e 5687 8e68 dd3f f486 34a7 c5c3 b63f
00000200: 591a 465d c033 ce3f 2638 6c44 3927 dbbf
00000210: 851b cb53 cec1 d6bf 0e02 be17 c9aa ddbf
00000220: fde4 97d9 62bf ab3f 1e37 2145 d6e7 d4bf
00000230: 6583 8bf3 bd13 d8bf b71e 751a 2af4 d1bf
00000240: 2c1d a2a5 fbcb de3f 4e83 6220 7a51 bc3f
00000250: a4f2 8f38 aa85 d03f df05 50b0 9dbf d9bf
00000260: 6f9c 7f35 615e d5bf c7cf a183 2d43 dcbf
00000270: 5455 7437 f24b b33f 681e 7712 c68c d3bf
00000280: 48f2 4efa d9f6 a2bf 2dd9 58b0 3c5f c2bf
00000290: 5ec4 9306 79b2 e33f 8499 24a5 7f04 d03f
000002a0: 7c01 774d 6b34 d93f e0e0 8da3 3c52 d1bf
000002b0: e0ee 7a51 00e2 c9bf 5468 4e8f ec99 d4bf
000002c0: bc98 903e 901e c83f bece 1702 f5a0 c8bf
000002d0: 15d2 8c67 0b73 d3bf dcd3 d1cb 9c06 cebf
000002e0: b285 b5ff a0c8 e03f c2b9 cbd9 e983 c43f
000002f0: 2484 ba3f bb60 d33f ec1e c806 1237 d7bf
00000300: c8f4 7936 b0c4 d2bf 60a6 88f2 c17e dabf
00000310: 193c 2f46 60ee b83f 02a4 4a39 0513 d2bf
00000320: 712a 04ee 6bd3 d6bf d21e 0657 d226 d0bf
00000330: 338a 0125 2d35 e03f fa4f 91f7 e13c c23f
00000340: 5b11 e812 9b40 d23f d053 e5f7 955a d8bf
00000350: ac29 9727 34e8 d3bf 2919 5b1f e29e dbbf
00000360: 2060 8f70 c152 b43f 009b b2ee ec39 d3bf
00000370: d9dd c8d3 9004 d83f 8a4b 5978 0d1c b0bf
00000380: f03d 2a58 faee e83f 205c 978b 5897 dc3f
00000390: 2d7d 8931 f48b e73f d0b4 0004 e681 c93f
000003a0: 7c13 546f 6a56 c33f b5a4 5b93 fe7c d23f
000003b0: 2970 f88e 56f6 e93f 3236 57f8 78f6 d03f
000003c0: 7e2e be89 f7cd c1bf d640 7d87 6cd6 c8bf
000003d0: 2c17 56e5 e0bc e43f c834 bd0c 1912 d43f
000003e0: 3830 e757 e77a e33f 7e33 6071 0073 b13f
000003f0: 58c3 1b20 2570 943f 9415 2ec0 c9b5 c43f
00000400: 3423 56b5 49e5 e53f 8e38 258a bea8 c13f
00000410: f44e 6a62 1cba e1bf fc29 7901 5e8a d4bf
00000420: 02f8 9321 a592 e03f 2738 a840 f345 c73f
00000430: ded6 13f2 a6d6 de3f 98b8 3a32 7ce8 aebf
00000440: f49e 7642 35cb bbbf d0dc 0a3a 28b3 a23f
00000450: 3b71 06e4 61c8 e13f 900a 674e f451 833f
00000460: 120b be2a eafc e3bf 6cfc 2500 a239 d6bf
00000470: 493f 7454 94b5 df3f 7291 0c1a ccf7 c43f
00000480: c67b 408a 8b39 dd3f acc8 6ab8 abe8 b5bf
00000490: e84a 16ba 8c8e c0bf 41b4 9b63 e5a8 943f
000004a0: dd98 acec 8610 e13f 6282 a6f5 52c7 8bbf
000004b0: 7e03 714e aee8 e6bf c398 5159 9a43 d8bf
000004c0: f2a2 48fb 9bab dd3f c358 b567 dbe3 c03f
000004d0: 6fdf 1431 932f db3f 0a3a 191d 8d10 bebf
000004e0: 8737 b9d5 078b c4bf 6a22 3c5e 40ed 87bf
000004f0: 2f41 400d 9c08 e03f 1653 f52b c1e3 a6bf
00000500: d98e 287d 2da5 e9bf 0af4 d363 24f0 d9bf
00000510: ab47 c6f0 11ff db3f ec69 ca98 882b bb3f
00000520: c83a b8a9 8a7d d93f d2c0 dca9 5d56 c2bf
00000530: 545b 09f1 1ed9 c7bf d02d 7452 948b a3bf
00000540: b7dd 2393 2f5f de3f a616 04c0 0824 b2bf
00000550: a48d fa5b 1074 eabf 2bd8 d463 9373 dabf
00000560: 4f2a e855 427d db3f 7bf4 512d 4a24 b93f
00000570: 6c1d da0e bbfb d83f 8afb 98df fc59 c3bf
00000580: 9523 0bf1 fcdf c8bf b218 6529 119a a7bf
00000590: 1f87 685d ffde dd3f 178c 7c2b 472b b4bf
000005a0: 5613 8733 ce99 eabf dd22 d776 8f83 dabf
000005b0: 1569 c88f 2b66 db3f 5134 44bb 61c4 b83f
000005c0: 24c0 187e aee1 d83f 7758 5454 4f8c c3bf
000005d0: 4c61 d9d6 b711 c9bf de15 3549 405c a8bf
000005e0: 7987 6e79 b9c6 dd3f 19c9 3ed9 8d8d b4bf
000005f0: 5c1c 3aa1 46a0 eabf e128 f9bf df87 dabf
00000600: 62a2 7f44 e861 db3f cb16 8685 88b3 b83f
00000610: 71f9 cf32 6bdd d83f 3a67 33ef bb94 c3bf
00000620: 0f70 b871 241a c9bf ea50 b1b4 f27d a8bf
00000630: 1700 ff2b 83c2 dd3f 5ae9 9717 339e b4bf
00000640: 5f16 312b 4c91 e9bf f26f 985d 98c8 d9bf
00000650: 515b e0a6 2f21 dc3f 86fa 080f a6b0 bb3f
00000660: 218c 2e6b 7298 d93f 9b1b 7454 6d1a c2bf
00000670: 7024 f9d6 d59f c7bf 67bb bcf1 b8a5 a2bf
00000680: c792 5d64 8a7d de3f 1c52 19e2 95a9 b1bf
00000690: b0c7 c64d 79dc e1bf 0c7b 3766 8a48 d4bf
000006a0: b0b5 4e2d 74c0 e13f 9c87 e4b5 ed3a cc3f
000006b0: 2a92 6967 65e8 e03f 803c 953b 0c67 72bf
000006c0: d2b6 cea7 7ea7 b4bf c9d5 1e64 59ac ae3f
000006d0: 05fd 45a9 b03c e23f 1053 11b8 381a 873f
000006e0: b269 00ce 717d d6bf 9cfc f0bb e6ee c9bf
000006f0: 0c35 ddef 803a e53f aed3 6b86 b346 d53f
00000700: f2c8 c996 e047 e43f 7862 48b7 68d5 b93f
00000710: eabc cc8b 470e a23f af25 a136 2ba4 c43f
00000720: d032 379a aaca e53f 4c53 7135 5ee8 c03f
00000730: dea2 6798 10bb e3bf 5272 3dd4 ad9f d2bf
00000740: 43d0 9efb 5955 e23f c7e9 15ae de1a cf3f
00000750: f04e a75b c373 e13f 98e1 a9aa 8861 853f
00000760: 6a39 3aef d9bb abbf 1925 4fcb 1e1f b23f
00000770: 6bc3 8682 08ee e23f dc56 be5a 57d7 a53f
00000780: 445b 1354 d28e e7bf c2c4 171c b055 d4bf
00000790: 99a5 07a5 a972 e13f 8d33 69be a352 cb3f
000007a0: a820 6706 dd7d e03f d28f 927c 122c 9dbf
000007b0: 82eb 1e4c ec78 b7bf 668a b386 7e75 983f
000007c0: 0b76 ff6b eb52 e13f 08f9 b36d d0d3 7ebf
000007d0: 154e 540b 7638 dfbf f125 a195 e535 c9bf
000007e0: fb87 8bdf 0258 e53f 743d ff06 cec3 d53f
000007f0: 0f70 2a1d 4153 e43f 568b f387 4720 b73f
